samples/parallel/tensor_torch/model.pth (torch, 170331 bytes, 20 tensors)

weight f4 [16, 3, 5, 5]
00000000: 3089 5d3d 3b0e 68bc f92f 24bc 766d 8a3b
00000010: 75a7 db3c a8b3 f1bc 0b4e 143d 7ffb 58bd
00000020: 8390 9fbb d85b 38bd 39cf 543d 75c2 0cbd
00000030: 2a90 01be 7e46 bcbc 70d8 1ebd a381 f33c
00000040: b764 b63d b5a2 b4bd 3851 15be d3e3 433c
00000050: f98e c3bb 3119 12bd 7d26 e6bd e931 8ebd
00000060: 054e 8b3c b1dc 3a3d 6eb8 7c3d cc65 943c
00000070: e0dd 61bc 8a4b 4bbd d093 f73d 7d28 8bbd
00000080: 83c7 77bd c065 35be d13b 15bd 3520 993a
00000090: b007 03bd 8b49 723b 4452 81be 3ca7 f13a
000000a0: 0efc 763c f394 09be 6269 60bd 3ee1 1bbe
000000b0: ff4f 14be 921b 973d bf8b cc3c 01b5 413d
000000c0: 9a56 adbd 08a3 f3bc cc5b 1cbd 2a72 c4bc
000000d0: 7f9c c7bc 8d4c 963d 7a78 9d3c ca02 babd
000000e0: 7bec b5bb 7c8e c8bd 6e8e 8bbd 2310 84bd
000000f0: 7dcc c8bc fc35 e0bd 954f 9cbe d5cc 98be
00000100: a2da 89be 592d 573d 5535 0abd 0ed5 2fbe
00000110: 82a3 7dbe bdce 02be 1218 533d e9fa 93bd
00000120: fac3 15be a255 2ebe ef58 7ebd e2bf afbd
00000130: 350b 4cbd 84b3 cebd f838 92bd 1d86 eebd
00000140: d773 67bd c1cc c4bd 2525 213d c864 c73c
00000150: bf3d 1d3a 794d 06be c832 583b e058 013e
00000160: 8ca0 b53d 0e9b b63b 19d4 f2bd e88c 9abd
00000170: 68c4 c9bc 8b27 aab9 1d1b 20be f557 0abe
00000180: d046 8cbd 5ead eabd b1f1 1bbe 574c 91be
00000190: 1130 1e3c 0cda 17bb e2de 003e f5c2 cd3d
000001a0: db2d 0a3e 3a04 e6bc 320a bc3a e507 773d
000001b0: 56a6 153e 4fad c13d 17e7 c83d 10ad 5d3d
000001c0: a188 983e 6a54 8d3e 65ed 803e 1702 95bc
000001d0: 21d4 af3d 28f9 1b3e 82c9 123e abb9 ee3d
000001e0: ecac 8a3c f513 463d 80fd 2b3e d975 fe3d
000001f0: 69d7 c93d 1019 6bbd 9d98 193d d71f 9dbd
00000200: 2f3f d3bb 5537 d5bd dcaa 2d3c 99d5 d63c
00000210: 970b c83d 8545 3e3d 7e40 713d 5b84 13bd
00000220: 12af d63d f8b4 e93d cdcc 0b3e e689 fc3c
00000230: a9ea 353c 144f 15bd a9d0 b33d e669 eb3c
00000240: 4e1b 98bc 3143 a3bd 0d6d 4abc 75ac 76bc
00000250: 4b45 36bc f04f 10be 10e5 75bc c502 1bbd
00000260: 2854 9cbc 5707 3fbd ae22 3a3c d0da e4bc
00000270: 487e babc dc8e b13a adca 4abd 6840 44bd
00000280: fa97 b8bc 7ec5 f13c 2b75 c63c c4e3 6fbc
00000290: b4f5 20bd 6338 583d 843c d43d e358 fb3d
000002a0: d2a2 a43c 6627 30bb 0067 a23c 5298 b33d
000002b0: ec56 b13d 38fb 1c3b 4038 6fbc 850f b1bc
000002c0: 8181 663d 73ff 1d3c c059 1f3d e086 d8bc
000002d0: d15d b73c 17be 40bb ff10 c9ba 2212 a9bc
000002e0: b21d 13bd 49fb 363c efcc 843b c512 a03d
000002f0: e9bd 9a3b d8d6 5b3b 03a6 143e 8edf c93d
00000300: a7d4 663e ae74 bf3d 165d 9d3d a398 d13d
00000310: e831 a83d 1d8c 2b3e 0251 1f3d 71b3 9d3d
00000320: fa12 90bc 3f59 253c 7e0a 063b 6a2f f2bc
00000330: c745 3cbc 6788 edbc e14b fd3c 60cf 243d
00000340: 7a60 bdbc 8327 0ebc 5379 de3b 0e7b 943d
00000350: 857a e03d 23b2 2f3d 3a72 3bbc 35dd b23d
00000360: d49f 003e 0aa5 523e 97c7 aa3d aca3 683d
00000370: a4fb 0c3d 2e86 0a3e 8c77 263e 5355 9f3d
00000380: be6b 88bc 635a d13a 5fd4 4abc 87ab 33bd
00000390: 01d1 bfbd 07ca 18be 5912 2cbd f590 99bd
000003a0: 0e6b 66bd dfdf e2bd 21e3 11bd bc75 a33d
000003b0: 52c7 25bd 5a42 0fbe 8ffc 2abe add2 66be
000003c0: b4f0 24be 57b2 13be 39be 86be c5a3 1bbe
000003d0: fd25 3fbe 84a3 a9bc 7e4e fcbd 09b0 0ebe
000003e0: ad12 9ebd 313e e4be ba78 843d d272 d63d
000003f0: 9ba2 943d a858 b0bd 11d6 f83d eebb b23c
0.05408591 -0.014163549 -0.010021203 0.0042244745 0.026813248 -0.029504612 0.03620724 -0.05297422
-0.004869522 -0.045009464 0.051955435 -0.034365136 -0.1265265 -0.022982832 -0.03878063 0.029724902
0.089059286 -0.088200964 -0.14581764 0.011956173 -0.0059679714 -0.035668556 -0.1123781 -0.06943113
0.017004976 0.045620624 0.061699323 0.018114947 -0.013785809 -0.049632587 0.1208874 -0.06794832
-0.060493004 -0.17714596 -0.036434 0.0011682572 -0.031989753 0.0036970105 -0.25258076 0.001843668
0.015074743 -0.13435726 -0.054788 -0.15222642 -0.14483641 0.073783055 0.02496898 0.04729176
-0.084637836 -0.029740825 -0.03817348 -0.023980219 -0.024366615 0.0733882 0.019222487 -0.09082563
-0.0055518723 -0.09792802 -0.06814276 -0.0644839 -0.02451157 -0.10947797 -0.30529466 -0.29843774
-0.26924616 0.05253348 -0.033742268 -0.17171118 -0.24769405 -0.12774177 0.051536627 -0.07225592
-0.1462554 -0.17024854 -0.062096532 -0.085815206 -0.049815375 -0.10092834 -0.07139772 -0.11646674
-0.056506958 -0.09609366 0.039342064 0.024340048 0.00059982756 -0.13115491 0.0032989252 0.1263156
0.088685125 0.005572683 -0.11856861 -0.07546407 -0.024629787 -0.0003245439 -0.15635343 -0.13510115
-0.06849444 -0.114588484 -0.15228917 -0.28378555 0.009655015 -0.0023170738 0.12585023 0.10046951
0.13494055 -0.028078187 0.00143463 0.060310263 0.14614233 0.09456884 0.09809702 0.054120123
0.2979174 0.27603465 0.25181118 -0.018189473 0.08585382 0.15231764 0.14334682 0.11656507
0.016928159 0.048358876 0.16795921 0.124248214 0.09855539 -0.05739695 0.03749906 -0.076720886
-0.006446741 -0.10410944 0.010599818 0.026224898 0.097678356 0.046453018 0.058899395 -0.036014896
0.10482611 0.1141147 0.13652344 0.030827474 0.011103311 -0.036452368 0.08780033 0.02873702
-0.018567707 -0.079718 -0.012355101 -0.015055765 -0.011124919 -0.14092994 -0.015008226 -0.037844438
-0.019083098 -0.04663786 0.011360807 -0.02793637 -0.022765294 0.0013546604 -0.049509693 -0.047912985
-0.022533406 0.029513117 0.024225792 -0.014641706 -0.03929682 0.05278815 0.10363105 0.12272813
0.02009717 -0.0026878952 0.019824505 0.08769287 0.08659157 0.002395345 -0.014600813 -0.021613846
0.05627585 0.009643423 0.03890395 -0.0264315 0.022383602 -0.0029410177 -0.0015340148 -0.02063853
-0.03591699 0.0111683095 0.0040527503 0.0781608 0.004722346 0.0033544805 0.14516453 0.09857093
0.22542058 0.09348427 0.0768377 0.10234191 0.08212644 0.16752668 0.038895614 0.07700241
-0.017587174 0.010092079 0.0020453031 -0.029563624 -0.011491246 -0.028995706 0.030919971 0.04023683
-0.023117293 -0.0086764125 0.0067893653 0.07250033 0.10960869 0.042894494 -0.011440808 0.08733598
0.1256097 0.2057077 0.0833885 0.056796715 0.03441967 0.13527748 0.16256541 0.07779946
-0.016652938 0.0015972372 -0.012379735 -0.043864753 -0.09366036 -0.14920817 -0.042009685 -0.074983515
-0.05625444 -0.11077856 -0.035616998 0.079814404 -0.04047329 -0.13990155 -0.16697906 -0.22541304
-0.16107446 -0.144235 -0.26317003 -0.15199192 -0.18666835 -0.020707853 -0.12319659 -0.1393434
-0.07718406 -0.44578698 0.06468339 0.10471119 0.07257577 -0.0861066 0.12150205 0.021818127

weight f4 [16]
00000000: d213 873f 6252 213f ec25 553f e5a4 8d3f
00000010: bf39 853f db19 813f 684f 523f 3512 823f
00000020: a5d2 033f eaf2 8e3f 090f ef3e 5e6e 743f
00000030: eda4 0d3f 1c62 703f 2c7b 0b3f ca9b 803f
1.0552924 0.6301633 0.8326099 1.1065947 1.0408248 1.0086015 0.82152414 1.0161806
0.51493293 1.1167881 0.46691158 0.95480907 0.5532978 0.93899703 0.5448482 1.0047543

bias f4 [16]
00000000: 9498 16be 2fe5 d0bd 9c79 93be 535f 553e
00000010: 2d7f 4a3e e640 f6bd e154 65be b414 693e
00000020: 6b09 3c3b f3e1 173e 1e8a 87bd 6a3f 563e
00000030: f66f a5be 26be 1b3d 8e79 9cbd 7775 ae3e
-0.14706641 -0.10199963 -0.28803718 0.20837145 0.19775076 -0.12024097 -0.2239566 0.22761804
0.0028692137 0.14832287 -0.06618141 0.20922628 -0.32311982 0.038023137 -0.07640372 0.34073994

running_mean f4 [16]
00000000: 0000 0000 0000 0000 0000 0000 0000 0000
00000010: 0000 0000 0000 0000 0000 0000 0000 0000
00000020: 0000 0000 0000 0000 0000 0000 0000 0000
00000030: 0000 0000 0000 0000 0000 0000 0000 0000
0.0 0.0 0.0 0.0 0.0 0.0 0.0 0.0
0.0 0.0 0.0 0.0 0.0 0.0 0.0 0.0

running_var f4 [16]
00000000: 0000 803f 0000 803f 0000 803f 0000 803f
00000010: 0000 803f 0000 803f 0000 803f 0000 803f
00000020: 0000 803f 0000 803f 0000 803f 0000 803f
00000030: 0000 803f 0000 803f 0000 803f 0000 803f
1.0 1.0 1.0 1.0 1.0 1.0 1.0 1.0
1.0 1.0 1.0 1.0 1.0 1.0 1.0 1.0

weight f4 [32, 16, 3, 3]
00000000: 28bd 8d3d fb25 8b3d 7263 a63d 17d6 083e
00000010: e1d7 edbd eac7 d13c 989c a4bd 7970 75be
00000020: 9a21 d03c 7e99 273d b0ea afbc 2927 8c3d
00000030: 93f7 f03d 03e9 1abd 60e0 813d a77d 3a3d
00000040: 4864 7d3d de00 543d 8437 343d 0766 31bd
00000050: 79e4 a4bd 6791 18bd 6887 053e dcc1 9f3d
00000060: 01a1 c63c 334e 633e 9892 0abd 45d3 5f3b
00000070: 48b4 edbd 840a 03be 3838 5c3d 2be3 83bd
00000080: 7d11 783d 1650 043d f8fc 78be fb1c 9d3d
00000090: 2398 393e d721 063d 0569 0fbe ddd6 d9bd
000000a0: aa08 2dbe f5b3 41be 0017 923d debd 19be
000000b0: f05c f4bc 8d4a 0c3d 400b 2c3d 1259 12bc
000000c0: 05d9 38be a472 82bd f5ee f23d c500 ebbb
000000d0: e0f0 21bd c49f 92bc 2ebb 6abd 9a2e 8abd
000000e0: 9dfe bdbd f93d 143d cf51 193d c9ec 44bc
000000f0: 96e1 9abb f8a4 203e 57ae 1abd 9a90 b33d
00000100: ac6f acbd 77cb 553d 79ab e83b e15a dcbc
00000110: 6f8b 96bd 18da dcbd 36c5 76be 7c6e 403e
00000120: ab34 0d3c 05a9 ef3d ec21 79bb 50c1 30be
00000130: 44d7 2ebd 0e63 553d a560 35bc 6580 ecbd
00000140: d835 2abc d395 4e3d 1482 043e 52c3 003e
00000150: 0920 023e 7c4a abbc c126 80be 44eb 47bc
00000160: 715e b4be 08b6 2f3d 11b7 d5bc 14c0 07be
00000170: 2099 fbbc 9ab2 4ebd eeef fbbd d43d b1bd
00000180: bb37 09bd 1a90 dd3d b83e 39be bc1f 1f3d
00000190: 28cf 703b 4bf2 eaba 041d f3bd 1053 b23d
000001a0: 3a40 8d3e 4438 333d 75a2 ad3e 0360 3f3c
000001b0: 09fd 52bd 48bc bbbc 16b2 ccbd 5c01 83bd
000001c0: 9149 3f3e 42dd 22bb 744c 1cbc a673 9c3d
000001d0: 98fc b2bc 6eb7 e7bd aea2 23be b7cb 79be
000001e0: bc6f 02be 672d 4b3d 8e46 a0bd 986e 1c3d
000001f0: b458 3d3e 14c5 35be 2fee 093c b5d2 aebc
00000200: abad 30bd 5d2b 5c3d d56d 843e 27ad c9ba
00000210: f5d5 4e3d 3ad4 023e a0d7 3cbc 5e08 ea3c
00000220: ae9a 8abc 9592 943c f036 7c3e 4f46 2f3e
00000230: dc0d acbd 6717 9a3e 9a44 b6bd 2447 cdbe
00000240: 7d08 993c efbf d23d 1c3c 923d 7691 9ebb
00000250: d28b 193e b176 983d ad3e 253d 87f2 e13d
00000260: a3cc cd3c 2044 eebc 5242 8dbb ee78 123e
00000270: 846a afbd bef0 893c 7946 1f3d a3a2 e1bc
00000280: 2cb8 283d 3058 7f3d d4fc 593d c48f 253d
00000290: c385 6e3d 9d29 ccbc a6fd 313d 0df9 72bb
000002a0: e058 d238 bb16 dbb9 c78e 9cbb b152 023c
000002b0: b432 f9bd 70f1 08bd e8a4 90bc a779 2cbe
000002c0: b4ef f83b b030 df39 869b a7bd 946b 0d3e
000002d0: b226 1a3e d7d7 963d 3a2d 1b3e 39ab 7f3e
000002e0: 8e55 9f3c ce3b 2c3d e49d a13d 591a b33d
000002f0: 9892 20be cf71 85bb b41a f03c 6732 d7bb
00000300: e19c d43c a314 eb3d 37ac a53d b356 b13c
00000310: 4c3b 73bd 7767 f3bd e03d 733d 4757 093e
00000320: deed f53d 6d8d a23c 7672 063e 4e2a 283e
00000330: 314d b63c 7d54 b7ba e7a0 11bd eb83 573d
00000340: cd8b 023e 5b31 403e b590 2a3d e73a 193e
00000350: 8e12 2d3e e774 12bd 4c9d 0fbd c0e4 08be
00000360: a2ab b33d 2c31 7b3e 1898 4a3e d1af 77bd
00000370: e397 7c3d 0133 7c3e 86ef aa3d 268d 953c
00000380: d938 ed3d f9aa a8bd e117 c23b f5b2 813d
00000390: 9c6b 9ebd 7c69 3cbe 5f99 26be 01ea 31bc
000003a0: 4515 c93c 2e46 f53a 0773 353d e4e8 c43d
000003b0: bf23 383e 7e73 3d3d 3993 ea3d 4e99 aa3d
000003c0: 82ce 963c 35db c33a ea36 77bd 3bcd d9bd
000003d0: 5d45 47bd 25ea 12be dd3d b9bc 3cdd 42be
000003e0: 53ca 00bf 4e57 d6bb dac2 97bd bf7e e2bd
000003f0: b436 5b3d cdec df3d 2214 463d 9687 0c3d
0.06920844 0.067943536 0.081244364 0.13362919 -0.11613441 0.025608022 -0.080376804 -0.23968686
0.025406647 0.040917866 -0.021474212 0.06843407 0.11765971 -0.037819874 0.06341624 0.045529988
0.061863214 0.05175864 0.043998256 -0.04331019 -0.0805139 -0.03724804 0.13039935 0.078006476
0.024246695 0.221978 -0.03383121 0.0034153026 -0.116066515 -0.1279698 0.053764552 -0.06439813
0.060563553 0.03230294 -0.2431525 0.07671543 0.18124442 0.032747116 -0.14004906 -0.10636685
-0.16897836 -0.18916304 0.07133293 -0.15013835 -0.029829472 0.034250785 0.042002916 -0.008932369
-0.18051536 -0.06369522 0.11861984 -0.0071717226 -0.039536357 -0.017898448 -0.057307415 -0.0674717
-0.09277079 0.036191914 0.037431534 -0.012019345 -0.004726599 0.1568793 -0.03776392 0.08767815
-0.08419737 0.052195992 0.0071005193 -0.026898803 -0.073508136 -0.107837856 -0.24098668 0.18792146
0.008618514 0.1170216 -0.0038014604 -0.17261243 -0.042685762 0.05209642 -0.011070405 -0.11547927
-0.010388814 0.050435852 0.12940246 0.12574509 0.12707533 -0.02090954 -0.25029567 -0.012202088
-0.35228303 0.042898208 -0.02608827 -0.13256866 -0.030712664 -0.050463296 -0.12301622 -0.08654371
-0.033500414 0.10818501 -0.18090332 0.038848624 0.0036744568 -0.0017924992 -0.11870769 0.08707249
0.27588063 0.04375483 0.33913007 0.011680606 -0.051510844 -0.022916928 -0.09994905 -0.06396744
0.18680407 -0.0024851118 -0.009539712 0.07639246 -0.021848962 -0.11314283 -0.15980026 -0.24394117
-0.12737936 0.049603846 -0.07825957 0.038191408 0.18490869 -0.1775096 0.008418604 -0.021340707
-0.043134373 0.053752292 0.25865045 -0.0015386686 0.050497014 0.1277627 -0.011526018 0.028568443
-0.01691946 0.018136302 0.24630332 0.17116664 -0.08401081 0.3009598 -0.088998035 -0.40093338
0.018680805 0.10290515 0.07140371 -0.0048391176 0.14994743 0.074445136 0.040342975 0.110325865
0.025121992 -0.029085219 -0.0043108845 0.14303944 -0.08565238 0.016838428 0.038885567 -0.027543372
0.041191265 0.06233996 0.05321963 0.04042031 0.058233034 -0.024922187 0.04345479 -0.0037074715
0.000100301346 -0.0004178787 -0.0047777626 0.0079542855 -0.12167874 -0.033433378 -0.017656758 -0.16843282
0.007596934 0.0004257015 -0.081839606 0.13810569 0.15053824 0.07365387 0.15153971 0.2496766
0.019449975 0.04204922 0.07891443 0.0874526 -0.15680921 -0.004072405 0.029309608 -0.0065672877
0.025953712 0.114785455 0.08089488 0.021647787 -0.05938272 -0.11884969 0.05938518 0.134122
0.1200826 0.019842828 0.13129601 0.16422388 0.022253605 -0.0013986971 -0.03555384 0.05261604
0.12748642 0.18768828 0.04164191 0.14963876 0.1690161 -0.035756018 -0.03506212 -0.13368511
0.08772971 0.24530476 0.19784582 -0.060470406 0.061668288 0.24628831 0.08346467 0.018255781
0.115831085 -0.082357354 0.0059232567 0.063329615 -0.077353686 -0.18399614 -0.16269444 -0.010859014
0.024546275 0.0018712932 0.04429915 0.09614733 0.17982386 0.04625272 0.11453862 0.08330022
0.018409017 0.0014942648 -0.060355105 -0.10634848 -0.048650134 -0.14347132 -0.022612507 -0.19029707
-0.5030872 -0.0065411692 -0.07410212 -0.11059331 0.053518966 0.10933838 0.048359044 0.034308992

weight f4 [32]
00000000: 5b4b 3e3f 307b 503f a7c8 713f c279 0f3f
00000010: 1db4 453f 88d8 523f 03e7 603f c21d 8c3f
00000020: 9bac 873f d793 7e3f 7f8d 9c3f a5b3 8a3f
00000030: aa17 713f 7b82 be3f 9f2d 863f 61a5 663f
00000040: 6842 583f 4748 a03f 8867 b63f f5bb aa3f
00000050: 91dd 583f 4caf 843f 4177 863f 9ccb 993f
00000060: 9e38 483f 02b3 853f 54c9 8c3f e67d 393f
00000070: e531 8a3f e795 863f 3b3d 8d3f 6d2d 863f
0.74333733 0.8143797 0.94446796 0.5604516 0.77227956 0.8236165 0.87852496 1.0946581
1.059955 0.99444336 1.2230681 1.0836073 0.94176733 1.488357 1.0482672 0.900961
0.8447633 1.2522057 1.4250345 1.333861 0.84713084 1.0365996 1.0505143 1.2015262
0.7821139 1.0445254 1.099894 0.7245773 1.0796477 1.0514497 1.1034311 1.0482613

bias f4 [32]
00000000: 9aea 77bd afaf 58bd a150 10be 5583 32bc
00000010: 5450 1c38 364b c83d c2b8 35bd ee83 633e
00000020: 9d27 6a3e c6ed 523e ca7a ce3d 6ce3 e93c
00000030: f658 523d 3109 a53d 118d f23d be83 3a3e
00000040: 58f5 20bd 2bbb 2b3e a3c0 98be 57b9 ff3d
00000050: 7682 483d 74bd 6b3e 1bb5 4a3e a6e9 613e
00000060: 1b92 23bd 0bed 0bbe ad26 573e e996 0cbd
00000070: d980 1dbe 32f9 733e 586f ae3d a960 30bd
-0.060526468 -0.05290192 -0.14093257 -0.01089557 3.726811e-05 0.0977997 -0.044365652 0.22218296
0.22866674 0.20598516 0.10082014 0.028550826 0.05135437 0.08058394 0.118433125 0.18214318
-0.039296478 0.16770618 -0.2983447 0.12486523 0.048952542 0.2302149 0.19795649 0.22061786
-0.03993426 -0.13664643 0.21010847 -0.034323607 -0.15381183 0.23825529 0.08517331 -0.043060932

running_mean f4 [32]
00000000: 0000 0000 0000 0000 0000 0000 0000 0000
00000010: 0000 0000 0000 0000 0000 0000 0000 0000
00000020: 0000 0000 0000 0000 0000 0000 0000 0000
00000030: 0000 0000 0000 0000 0000 0000 0000 0000
00000040: 0000 0000 0000 0000 0000 0000 0000 0000
00000050: 0000 0000 0000 0000 0000 0000 0000 0000
00000060: 0000 0000 0000 0000 0000 0000 0000 0000
00000070: 0000 0000 0000 0000 0000 0000 0000 0000
0.0 0.0 0.0 0.0 0.0 0.0 0.0 0.0
0.0 0.0 0.0 0.0 0.0 0.0 0.0 0.0
0.0 0.0 0.0 0.0 0.0 0.0 0.0 0.0
0.0 0.0 0.0 0.0 0.0 0.0 0.0 0.0

running_var f4 [32]
00000000: 0000 803f 0000 803f 0000 803f 0000 803f
00000010: 0000 803f 0000 803f 0000 803f 0000 803f
00000020: 0000 803f 0000 803f 0000 803f 0000 803f
00000030: 0000 803f 0000 803f 0000 803f 0000 803f
00000040: 0000 803f 0000 803f 0000 803f 0000 803f
00000050: 0000 803f 0000 803f 0000 803f 0000 803f
00000060: 0000 803f 0000 803f 0000 803f 0000 803f
00000070: 0000 803f 0000 803f 0000 803f 0000 803f
1.0 1.0 1.0 1.0 1.0 1.0 1.0 1.0
1.0 1.0 1.0 1.0 1.0 1.0 1.0 1.0
1.0 1.0 1.0 1.0 1.0 1.0 1.0 1.0
1.0 1.0 1.0 1.0 1.0 1.0 1.0 1.0

weight f4 [32, 32, 3, 3]
00000000: e470 20be e748 7e3e 5c56 93bd c013 613e
00000010: bbf0 813c 10a6 51be d04a da3e 5106 0a3e
00000020: 8292 29be 943e 7d3d 9b53 cbbd 9518 0f3c
00000030: 4b99 fbbc 21c7 9f3d 1037 8e3e 3560 593e
00000040: 13de c0bd 2086 1d3d 4287 2cbe 92dc 903c
00000050: e6e8 31bd e45e 6cbd c78b e3bd a18b 2c3e
00000060: 4d0f 0fbe be5e 353e 10d5 993e 9eb8 573e
00000070: 4da3 a93d 774a 883d cc9c c23c e702 85bd
00000080: c281 c5be f55b e93e f825 24be b542 aabd
00000090: cdcd 8abe ba47 493c bd6f ddbc 914d 87be
000000a0: a42f 223f 0cf1 113e 6d11 de3e aaaf 983e
000000b0: 4009 c13d 79e1 aebc d591 debd 201e 4bbd
000000c0: 2161 e23d b824 5cbe 19ec 50be 4413 f9bd
000000d0: 0411 b1be 536b 05bf d3f1 003d 7723 cbbd
000000e0: 3a45 39be 9db3 213d 1a23 4f3c e2bd 1dbe
000000f0: 66d3 32bd 36b2 d6be 785d d9be 96c3 f5bd
00000100: 4e58 6bbe 38ad 813e 35aa f3bd 73df 45be
00000110: 7dca f5be c8bb 7ebf a755 6d3c def8 aebb
00000120: 6dd5 b1bd f2d6 8f3d f6cb bc3d 3dd3 5abd
00000130: 507e 13be 7e55 a2bd a2d2 a73e 407f c73e
00000140: 9cc1 293e 9222 f63d 3087 d2bd f9ba 22bd
00000150: 8ccc 033e 671d afbd 79a3 66be fbc3 333d
00000160: 693a 3ebe 2bb8 0abe 6661 29be eac2 cabd
00000170: fb4e de3d 56d3 2dbd f802 9b3e 8e1b ab3d
00000180: 0baf 65be fee9 ab3d c083 173e 9ad1 2b3e
00000190: 5e21 7c3d 632a 99be 1c20 5e3d 3e93 dbbd
000001a0: 575f 193e 9624 793f f591 0c3e fb46 383d
000001b0: 4ac0 ea3d 8a6d a4bc 90cd 79be b977 7a3d
000001c0: fe6e 80be 2ddc af3d aebe 4dbe d71b 163e
000001d0: 3eb4 493e 1456 cfbd 3a9e 0ebe 50d4 693d
000001e0: f927 b7be 2268 18bf e4d6 1ebd 70a1 b9bd
000001f0: 526f e23e 44de 163e 0b0f 13bd cfcc cbbd
00000200: 4790 c03c f1a1 44be 4763 1cbf 1088 3e3e
00000210: ac6c 9ebe de39 9d3e cdf1 aa3e 7d48 a6bd
00000220: 5687 02be 09ba 78bd 0bfc 5abe 5e2f 9abd
00000230: 989c 82be a42d 6b3e c4e6 bdbe 3bf2 aebe
00000240: 4be9 89bd a706 8ebd fc96 fbbc 1961 20be
00000250: 8697 113e 76db 303e 0b38 533e 9182 e43d
00000260: 074f 6d3e 32e8 95bc 2f67 103e 358e 0a3e
00000270: afb3 b4bd cb2b 2f3f fc30 e6bd c744 11be
00000280: 9eb6 0bbf f4ec 35bf d2ca bb3d 952c 733e
00000290: cc1e 8e3d 0b59 c63c 42ce 8a3e 2292 d63e
000002a0: 6095 093e 58e7 c43e 84f3 f93e 042c c53d
000002b0: c068 493c 64f6 5d3e a4e3 3fbd 7dc0 af3e
000002c0: b82c 08bf 30d2 db3d 05eb 7abe 1d1c fbbd
000002d0: 8899 cf3d 3720 f5bd 1ba6 aabd 9335 46bd
000002e0: 8e05 19be 4869 58be 21ec d43d 4260 e6be
000002f0: bac1 9ebe 37c8 04bc c4e4 433e 3df2 dabb
00000300: f88d 823e b1f6 9fbd 5609 2dbe cf5e fdbe
00000310: 9cbd 2a3e 78e2 183e 3e30 edbd bd89 ce3b
00000320: 898d 383e 7d18 9b3d 7844 d1bd 7180 f6bd
00000330: 4411 81be 2caf 8c3d 2dea 333f 6be8 12bd
00000340: 642c 153e b215 f4bc 0a0e b6bd 2958 673d
00000350: f4c2 acbd 4ba9 af3d 29a7 cf3d c859 14bf
00000360: cf8f da3d 771b 11bc c2ed 053d c69d 283e
00000370: b720 383e c43d 383e f999 b43d 2af1 b73c
00000380: 8228 29bd 7de9 86bb 134e c8bd 9d26 ca3d
00000390: 680d 5abe a293 3a3d 0a7c d3be c1ac 3d3e
000003a0: 80e9 553c 5e49 123e 73b1 dd3d 610e 773e
000003b0: 1eac eb3e 066e f93b e091 013e a977 f9be
000003c0: b040 7c3e 5354 2f3d 0bfb 89be 945e 8fbd
000003d0: 3615 11be 522b 99bd 6cca 53bd 1e62 d6bd
000003e0: dd0b 423e 6b47 0cbf d284 6bbe 2fd8 b23d
000003f0: 2fdc e03d 6e13 243e 65fa bebd ec03 0bbe
-0.15668064 0.24832498 -0.07194206 0.2198019 0.01586186 -0.20473504 0.42635202 0.13478972
-0.16559795 0.061827257 -0.09928056 0.008733888 -0.030712744 0.07801653 0.27776384 0.21228106
-0.09417357 0.03845799 -0.16848472 0.017683301 -0.043435 -0.057707682 -0.11110645 0.16850139
-0.1397068 0.17711923 0.30045366 0.2106652 0.082831 0.06654828 0.023756407 -0.06494694
-0.3857556 0.4557797 -0.16030109 -0.083135046 -0.2711014 0.012285167 -0.02703082 -0.26426366
0.63353944 0.14252108 0.4337267 0.2982152 0.094255924 -0.021347748 -0.10867659 -0.049589276
0.11053682 -0.21498382 -0.20402564 -0.12161878 -0.34583294 -0.5211689 0.03148062 -0.09918874
-0.18092814 0.039477933 0.012642646 -0.15404466 -0.043658637 -0.4193284 -0.42454123 -0.12000196
-0.22982904 0.25327468 -0.11897699 -0.1932352 -0.4800605 -0.9950528 0.014485753 -0.005339726
-0.08683286 0.070234194 0.0921859 -0.05342411 -0.14403653 -0.079264626 0.32777888 0.38964272
0.16577762 0.120183125 -0.10279691 -0.039729092 0.12870997 -0.0855053 -0.22523297 0.043888073
-0.18576969 -0.13546817 -0.16541061 -0.09900458 0.10854908 -0.042437874 0.30275702 0.08354865
-0.22430055 0.0839424 0.14796352 0.16779175 0.06155526 -0.2991515 0.05422984 -0.107214436
0.14977776 0.9732145 0.13727553 0.044989567 0.114624575 -0.020071764 -0.24394822 0.061149333
-0.2508468 0.08586917 -0.2009227 0.14659058 0.19697663 -0.1012384 -0.13927546 0.057087243
-0.35772684 -0.59533894 -0.038779154 -0.09063995 0.44225556 0.14733225 -0.035903018 -0.099511735
0.023506297 -0.192024 -0.61088985 0.18606591 -0.30942285 0.30708212 0.33387604 -0.08119295
-0.12746939 -0.060724292 -0.2138521 -0.07528566 -0.25510097 0.2296663 -0.37090123 -0.34169182
-0.0673395 -0.069348626 -0.030711643 -0.1566204 0.14217958 0.17271218 0.20626847 0.11157716
0.23174678 -0.018299196 0.14101861 0.1353081 -0.088233344 0.684262 -0.11239812 -0.14186393
-0.54575527 -0.71064687 0.09169544 0.23747475 0.06939468 0.02421238 0.27110487 0.41908365
0.13435888 0.3845775 0.488186 0.09627536 0.012293041 0.21676022 -0.046847954 0.34326544
-0.53193235 0.107334495 -0.24503715 -0.122612216 0.10136706 -0.11969035 -0.08332463 -0.048390936
-0.14943525 -0.21133912 0.103966005 -0.44995314 -0.31007177 -0.008104376 0.19130236 -0.006681709
0.2549894 -0.078107245 -0.16898093 -0.49486396 0.16673893 0.14930141 -0.11581467 0.006303041
0.18022741 0.0757303 -0.102181375 -0.12036217 -0.25208485 0.06869349 0.702792 -0.035866182
0.14567715 -0.029795501 -0.088893965 0.05648056 -0.08435622 0.08577212 0.10139305 -0.57949495
0.106719606 -0.008856646 0.032697447 0.16466436 0.1798123 0.17992312 0.088184305 0.022453863
-0.041298397 -0.0041171894 -0.097805165 0.09870646 -0.21294177 0.04555095 -0.41305572 0.18522932
0.013056159 0.142858 0.108248614 0.24126579 0.46029752 0.007611993 0.12653303 -0.48724106
0.24634051 0.042805027 -0.26949343 -0.07000461 -0.14168248 -0.07478966 -0.051706716 -0.10467933
0.18949838 -0.54796475 -0.22999886 0.0873264 0.10979497 0.16023037 -0.09325103 -0.13575715

weight f4 [32]
00000000: f614 1f40 682e 6c3f 192a 7d3f a6f8 4f3f
00000010: 4c01 3640 1c71 803f 7ebc 963f d6d1 713f
00000020: 98de 663f 6d9d 723f a737 b13f 1b96 1f40
00000030: b712 663f f3a2 e53f 228c 4e3f db66 863f
00000040: b124 8e3f 55bf 723f 8fad 0140 a2c7 0840
00000050: 78dd e23f e8b4 4c3f 2005 e43f 6bc4 6b3f
00000060: 1821 a53f fa0e 733f 7778 1e40 e239 0b40
00000070: 57d5 573f 79e6 4c3f 8094 523f 460f a23f
2.4856544 0.9225831 0.9889236 0.8123878 2.8438292 1.0034518 1.1776273 0.9446081
0.901834 0.9477146 1.3845109 2.4935367 0.89872307 1.7940353 0.80682576 1.0500139
1.1104947 0.948232 2.0262182 2.1371846 1.7723837 0.7996354 1.7814064 0.92096585
1.2900724 0.9494473 2.4761026 2.175408 0.84309906 0.80039173 0.82257843 1.2660911

bias f4 [32]
00000000: c696 823e b6a1 05bf 1828 ca3c 6185 ebbe
00000010: bba9 b73e 7b3d 3b3e fa11 82bc a142 10bf
00000020: 0edf 44bf cbdc d9be 40eb a4bc 30f8 9dba
00000030: 8b18 27be 2736 f53d 2840 68bf dcc9 403e
00000040: aa28 b6be 1d87 91be 808f 9e3e c50a 9d3d
00000050: 62b6 9d3c 9a15 14bf db4f 693e b8b8 bebe
00000060: 467c 123e 004c aabe b3e4 a03e fa8f a93e
00000070: 9e29 01bf 4b51 3dbf 3806 273e a944 ce3c
0.25505656 -0.52199876 0.024677321 -0.46000198 0.35871682 0.18285172 -0.015877713 -0.5635167
-0.76902854 -0.42551264 -0.020131707 -0.0012052115 -0.16317956 0.11973219 -0.90722895 0.18827003
-0.355779 -0.28423396 0.30968857 0.0766807 0.019252006 -0.5784546 0.22784369 -0.37250304
0.14305219 -0.33261108 0.31424484 0.33117658 -0.5045413 -0.7395217 0.16310966 0.025179224

running_mean f4 [32]
00000000: 0000 0000 0000 0000 0000 0000 0000 0000
00000010: 0000 0000 0000 0000 0000 0000 0000 0000
00000020: 0000 0000 0000 0000 0000 0000 0000 0000
00000030: 0000 0000 0000 0000 0000 0000 0000 0000
00000040: 0000 0000 0000 0000 0000 0000 0000 0000
00000050: 0000 0000 0000 0000 0000 0000 0000 0000
00000060: 0000 0000 0000 0000 0000 0000 0000 0000
00000070: 0000 0000 0000 0000 0000 0000 0000 0000
0.0 0.0 0.0 0.0 0.0 0.0 0.0 0.0
0.0 0.0 0.0 0.0 0.0 0.0 0.0 0.0
0.0 0.0 0.0 0.0 0.0 0.0 0.0 0.0
0.0 0.0 0.0 0.0 0.0 0.0 0.0 0.0

running_var f4 [32]
00000000: 0000 803f 0000 803f 0000 803f 0000 803f
00000010: 0000 803f 0000 803f 0000 803f 0000 803f
00000020: 0000 803f 0000 803f 0000 803f 0000 803f
00000030: 0000 803f 0000 803f 0000 803f 0000 803f
00000040: 0000 803f 0000 803f 0000 803f 0000 803f
00000050: 0000 803f 0000 803f 0000 803f 0000 803f
00000060: 0000 803f 0000 803f 0000 803f 0000 803f
00000070: 0000 803f 0000 803f 0000 803f 0000 803f
1.0 1.0 1.0 1.0 1.0 1.0 1.0 1.0
1.0 1.0 1.0 1.0 1.0 1.0 1.0 1.0
1.0 1.0 1.0 1.0 1.0 1.0 1.0 1.0
1.0 1.0 1.0 1.0 1.0 1.0 1.0 1.0

weight f4 [16, 32, 3, 3]
00000000: d653 60bd 87fc 38be 5933 35bd 85e6 f7bd
00000010: 34fd a4bf 5e2b e8bd daab 97bd b144 043e
00000020: 179d 3d3d 5c77 d43c e3f7 253c e35e a8bc
00000030: e550 4fbd dd51 6cbe d514 0fbd 10d8 f6bc
00000040: e5c8 8dbe faea c2bd 9ee6 c0bc feca febb
00000050: abe6 03ba 64ac a43c a5a7 27be 978d c03c
00000060: 6c1b 01bc d210 29bd 5387 dfbc 4bb0 02bd
00000070: 02d2 173a 9e7d 603d f084 40bc 1c99 a63e
00000080: 681a 11bc 4a4c 7bbc 44f1 0fbd 6b8a 33bd
00000090: b181 8d3c f397 e5bd 34bd 51bd a7ff e3bd
000000a0: 53a2 1a3c 8858 f63d 3e3a cebb f605 bbbd
000000b0: 3202 9cbd 59b0 8cbd 1a33 78bd a4b5 c339
000000c0: e3e8 a53c 8c73 2dbf 1601 02be 7147 a5bd
000000d0: 30e3 3d3e 7efe 523d 5090 7abc b9e3 49bd
000000e0: e3ba 2abd aa30 55bd 7ad6 23be a5f1 aabc
000000f0: abaa 03be 8227 02be 58ba e6bd 3eda fe3c
00000100: b6c6 c2bd 98c2 1abc 1d06 5fbd ede0 2bbe
00000110: 528d a73d ced3 3abc 8c40 bdbd 9414 94bd
00000120: 8fef 4eba b8d0 923c 741a 463b 5cc2 be3d
00000130: 7e10 083f fb5e 76bd c08e 0f3d 6a54 1b3e
00000140: fd65 773d 260e af3c cece 473d 3ac6 c13c
00000150: 819f 42bd 106f 133f 4b15 e23c d01d 90bc
00000160: 43a7 3bbe e543 b2ba cd77 283d 2329 e6bc
00000170: c74c ac3b 915d 42be 1390 e4be fb14 7ebc
00000180: f078 c63c 9240 85bd bbfc 46bd aca8 7f3d
00000190: 313a 51bd 7f09 d6bc ba8e babd b36a 573e
000001a0: 3145 7a3c 456c 823d dc4e 873e a4b8 903d
000001b0: d459 c3bc 9694 503d fb6b 7f3c b2ee 3e3d
000001c0: 6017 123d 8eb6 99bb 60eb 9dbc 8537 253e
000001d0: a1df f33c 359f 58bd 2282 e0bd 5e89 213d
000001e0: 22c6 f33a 456c abbe 23d8 b43d bc43 503d
000001f0: 06d5 1cbe f546 35be 9bfb 303c 2465 ad3d
00000200: a9c8 433c 6011 13ba 7d1c 2e3e 35f0 01be
00000210: 31c5 e73c 29ba e5bd 0116 e73b 1659 c9bc
00000220: c575 d33c de69 253d c162 523d 8cae 373e
00000230: f970 d23b 849f 8bbd c25b 80bd 77b7 053c
00000240: 00df e1bc a6c9 cd3c 8833 563d f6aa 8a3d
00000250: 275f b83d a1f6 593d 14e6 373c 4c3f c43b
00000260: e6ea b43c 2e2e 0d3c f70c d0bc 94bd 2a3c
00000270: 9dd0 af3d e6d3 c1be a4f0 2bbe 91b7 6b3d
00000280: e94c 063e 7f80 763d 6a53 25be 4aed 14bd
00000290: fe7a b4bd 1c1c 8c3e dcf2 b13d bf10 323e
000002a0: 3e5c 0d3c b5d4 21bf 7b84 8cbe b3a4 cabd
000002b0: 1c99 883d 6fad 8b3c e3ef 493e 2b32 23bf
000002c0: 485b 883e 7166 d9bd c8ff f6bd 3f61 d4bc
000002d0: 4c4d a2bd c84e 2abe 131d f5bb fba5 10bd
000002e0: fc12 f3be 9b8f 66be 7c7d eabc 543a f8bd
000002f0: 21c6 663d c504 1cbd f824 90bc cfb5 b23a
00000300: e6ef 44bd 3bc1 94be 3c67 713c 396a c23c
00000310: 7a26 063d 4f4d 64bb fcb0 8ebd dd13 ccbc
00000320: eed1 043d ef44 10bd e8c3 763e 3922 8fbd
00000330: eb7b 8c3c ae52 1fbe 5cba 9ebd 9945 253b
00000340: 3f8a b6bb a877 883c cdaf cb3c 811a 103e
00000350: b396 123e f9cd 923c 932a c93e affa b53d
00000360: 22f2 56bd 6925 95bd 2404 14bd 158a 89bd
00000370: 8f63 2abf d411 12be 97db cdbc 2d68 99be
00000380: e8cf a4be 30dc c5bb 7cc6 953c efa0 6f3c
00000390: b29e 023d dcde 3abe 9440 db3d 9fdc c5bc
000003a0: 1442 b1bd 4eb3 58bd 850f 2f3c e9c1 a5bd
000003b0: b15b 283e 148c 2ebe 5dc5 51bf 872a 2c3d
000003c0: fe79 07bd 8cbf 973e ab56 f83d 159d 543e
000003d0: bb38 973d 619d 4ebd c88e 27be 1080 83bf
000003e0: 6afa 0d3e 2a4e a73d fd18 81be ad1e 06be
000003f0: 0923 93bc 13cd 6b3c 2c42 29bd 18bf f9bb
-0.054767452 -0.18065082 -0.044238422 -0.12104515 -1.2889771 -0.11336397 -0.07405825 0.12916829
0.04629239 0.025935821 0.010129902 -0.020553058 -0.050614256 -0.23078103 -0.034931976 -0.030132324
-0.27692333 -0.095174745 -0.023547467 -0.0077756634 -0.00050316256 0.020101734 -0.16372545 0.023505015
-0.007880073 -0.041275807 -0.027286207 -0.031906407 0.00057914865 0.054807298 -0.011750445 0.32538688
-0.008856393 -0.015338013 -0.0351422 -0.043833178 0.017273756 -0.11210623 -0.05120583 -0.11132746
0.009438115 0.12028605 -0.006293564 -0.09131996 -0.07617606 -0.06869573 -0.06059561 0.0003732863
0.02025265 -0.67754436 -0.12695727 -0.08070267 0.18543696 0.051512234 -0.015293196 -0.04928944
-0.041682135 -0.052048363 -0.15999785 -0.020867178 -0.12858073 -0.12710384 -0.11266011 0.031109925
-0.09510557 -0.009445809 -0.05444919 -0.16785021 0.081812516 -0.011403037 -0.09240827 -0.072304875
-0.00078939734 0.01792179 0.003022817 0.09314415 0.53150165 -0.060149174 0.035048246 0.1516892
0.060399998 0.021369051 0.04878121 0.023654092 -0.047515396 0.5759134 0.027598044 -0.01759234
-0.18325524 -0.0013600556 0.041129876 -0.028095787 0.005258176 -0.18981005 -0.4464117 -0.015507932
0.02422759 -0.065064564 -0.048580866 0.062416717 -0.051080886 -0.026127575 -0.09109254 0.21036796
0.015275286 0.06368307 0.26427352 0.070664674 -0.023846544 0.050922953 0.015589709 0.046614356
0.035666823 -0.0046909517 -0.019277275 0.1613446 0.02976972 -0.052886207 -0.10962321 0.039437644
0.0018598477 -0.3348104 0.08830287 0.050845847 -0.15315637 -0.17702849 0.010802175 0.08466557
0.011949697 -0.0005610194 0.17003055 -0.12689288 0.02829227 -0.11217148 0.0070521836 -0.024578612
0.025812993 0.040384166 0.05136371 0.17937678 0.006422159 -0.068175346 -0.062675014 0.008161417
-0.027572155 0.025120568 0.052295238 0.067708895 0.09002524 0.05321372 0.0112242885 0.005988991
0.022084665 0.008616967 -0.025396807 0.0104211755 0.08584712 -0.37856978 -0.16791016 0.05754811
0.13115276 0.060181137 -0.16145101 -0.03635911 -0.088125214 0.27365196 0.086889 0.173892
0.008627949 -0.6321519 -0.27444825 -0.09894695 0.06669828 0.017050473 0.19720416 -0.63748425
0.26632142 -0.10615242 -0.12060505 -0.025925277 -0.079248995 -0.16631615 -0.0074802726 -0.03531454
-0.4747542 -0.22515719 -0.028624289 -0.121205 0.056341294 -0.038090486 -0.017595753 0.0013634505
-0.048080347 -0.29053673 0.014734086 0.023732292 0.032751538 -0.0034836119 -0.06967351 -0.024911815
0.032426767 -0.03522199 0.2409817 -0.06988949 0.017148932 -0.15558884 -0.07750389 0.0025218485
-0.0055706794 0.016658619 0.024864102 0.1407261 0.143153 0.017920481 0.39290294 0.08885705
-0.05247701 -0.07282526 -0.03613676 -0.0671579 -0.66558164 -0.14264613 -0.025129123 -0.29962292
-0.3218987 -0.0060382113 0.018283121 0.014625772 0.031889625 -0.18249077 0.10705677 -0.024153052
-0.086551815 -0.052905373 0.0106848525 -0.08093626 0.16441227 -0.17045623 -0.8194178 0.042032745
-0.033075325 0.29638326 0.121259056 0.20763047 0.07383867 -0.050443057 -0.1636306 -1.0273457
0.13865057 0.081692055 -0.25214377 -0.1309764 -0.017961042 0.014392155 -0.041322872 -0.007621657

weight f4 [16, 32, 3, 3]
00000000: 2b75 a83d b84f e1bd 7c71 bd3c ff85 8a3e
00000010: 73d1 58be 00ec 1e3e cdc7 1ebd cb50 9d3d
00000020: e2a6 a93b c10f 863c 222d a2bc 2cf7 413d
00000030: 2de2 953d 59e5 b1be e0cb 083d da66 36bc
00000040: 8eea 89bd 6fc6 b53d 3698 b8bd 8c8a ab3c
00000050: eb96 883c 9f19 00be b1e6 023f 30f1 01bd
00000060: 8eeb a2bb 8c61 9eb9 b715 4b3a 3844 93bd
00000070: e7fc 29bd b6bc cfbd 13a3 933c 204e 533d
00000080: d8de 503d 480a f63d 003c 0abe cebd 063d
00000090: 1cf4 87bd 37c7 39be 7d07 333d 54e1 bfbc
000000a0: 67f1 8dbe 5733 55bb 2aac 59bc 9327 6f3c
000000b0: 1d42 ba3c 5a0d e7bd 54a8 263d 7e01 35bd
000000c0: fdb4 0fbe c75c 803e 810a 423d ac74 81bd
000000d0: e010 bcbd 116c 78bc 06af 0abc 9d14 ab3d
000000e0: 0b27 3fbd fac7 9d3d 1b9e 1d3f 4390 98bd
000000f0: ea65 d7bb f0aa db3d 9eb9 4abd 063d 973d
00000100: 0585 7fbe 5829 69bb 4351 33bd d017 223e
00000110: 8a0c 043d fecb 3a3d 5698 d03d 7afd 64be
00000120: 0846 acbc 56cf b93d 0b84 293b 8597 57bd
00000130: 7413 803e cac4 29bd 6fa6 dbbc 3274 ed3d
00000140: f31c 283d 80f9 aebd 3330 783c ed4f 96bc
00000150: 95b9 3d3e 0773 4bbd e40b be3d 3434 90bc
00000160: 704e 613d 5205 f03b cafe 8bbc c53f 3fbc
00000170: cd13 b2bc 0e14 9a3c 6648 563e 8ea1 b9bd
00000180: ff75 633b a7de 8e3d 0abe b4bb 3c31 ddbd
00000190: 6ace 41be 32a2 a8bd 94e5 5b3d 6b95 d9bd
000001a0: b28e 353e 86a0 b2bd 0d7a febd a3e2 ff3c
000001b0: 0d81 803d 8751 a23c e6c6 293d 3ecb bd3d
000001c0: fac2 0ebf 1f7a 56bd 3a76 81bd eff9 9b3d
000001d0: 5e0c d0bd 9e16 1bbd 298e b33d 21e2 05bd
000001e0: fd61 e4bd 3a7d 33be 92a7 8fbd 16d9 5dbd
000001f0: e6e9 f6bd 57b8 7f3a e2da c33d d1b1 b83d
00000200: 767b 5cbc 969d 163e a522 f13e a3ca 053c
00000210: aa51 23bd 7feb 233a ba00 e03c 3e40 f3bc
00000220: 2ed2 763c 81ca 8fbc 9be9 09bd 3ef4 a43e
00000230: cc49 e93c 057d b1bc b1e3 303d b1ba 58ba
00000240: 054b bc3b 0e56 15bd 118c 4bbc 62e0 913c
00000250: 4564 353f 0ab0 1abd 5a51 0dbc 73f1 12be
00000260: 07cc 04bd f2b2 03bd 25da 82bd facf 563c
00000270: d097 21bd a99f 343e 3d07 203e 8619 953d
00000280: 5fe4 a2bd e8b8 313b b06d 55bd 4907 8c3d
00000290: 1380 cc3c 0cb5 8c3d 530a d13d cc40 083d
000002a0: 31d7 343d cbe3 ddbc f05b 853d 8ad8 efbb
000002b0: 283f 0dbd 0f56 1c3c 932e 78be 0fdf 6abe
000002c0: 2585 6a3d 9a5e 1d3d 7f91 853c 8fc2 feba
000002d0: 08ff 403d 593e df3d bb94 12ba a52c 90bd
000002e0: 9271 903e 8a8c 5f3d d49d 61bd e9ea 1bbe
000002f0: d89b 08bd a237 613e 65d2 b9bd 691b e73b
00000300: 943e 16be 9afe bfbe 29ec 6d3c e1b3 d63d
00000310: 7437 ea3b e2b1 173e d9b6 0d3d 830f 13bc
00000320: efa4 65bc 85f5 87bc 06c2 353e 0057 f8bd
00000330: 9ad8 3d3c f7c2 5dbd 1922 113d e07c 55b8
00000340: 04d8 c53a c436 c13b 3434 72bd bf7a acbe
00000350: 47e5 143c ccee b73c 060d 143e d26e 223d
00000360: 1a13 483d a20c 6f3d 6045 b33c bfbb 913e
00000370: 2ba5 2bbd 538e 783d c92c 143c b1dd febd
00000380: 5d94 2bbd 79dc 9b3d 98ad 1c3e 68d7 473d
00000390: 8950 1a3e 8b1e 95bd 0771 183e 63af cd3d
000003a0: 8fe6 023e 56fc 133d 6432 873d 1ca2 0d3e
000003b0: 0c71 dd3c 62a7 123d a570 bcbe d68e 0e3d
000003c0: c516 65bd 5c80 693d 9baa dcbc ead4 0bbd
000003d0: 5483 7f3c 4bbf 95bb c86a 61bd 3206 a53d
000003e0: 9d6c adbb 23bd 203c 3bce a73d 867e 313c
000003f0: bee6 94bd 0c3c 6fbe fa08 823c aa8c 29be
0.08225473 -0.11001533 0.023125403 0.27055356 -0.21173649 0.15519714 -0.038764764 0.07681426
0.0051773647 0.016364934 -0.019796912 0.047354862 0.0731853 -0.3474529 0.033397555 -0.01113292
-0.06734191 0.08875739 -0.09013407 0.020940088 0.016673526 -0.12509774 0.5113326 -0.031724155
-0.004971928 -0.00030208786 0.0007747071 -0.07190746 -0.041500952 -0.10143416 0.018022096 0.051588178
0.05099377 0.1201368 -0.1349945 0.032895856 -0.06638357 -0.181424 0.043708313 -0.023422875
-0.27723238 -0.0032531822 -0.013285676 0.014596838 0.022736603 -0.112818435 0.040687874 -0.044190876
-0.14033885 0.25070783 0.0473733 -0.063210815 -0.09182906 -0.015162484 -0.00846458 0.08353541
-0.046668094 0.07704158 0.61569375 -0.07449391 -0.0065734284 0.10725963 -0.049493425 0.07384686
-0.24953087 -0.0035577621 -0.04377867 0.15829396 0.03223852 0.0456047 0.10185306 -0.22362319
-0.021029487 0.09072749 0.0025866057 -0.052634735 0.25014842 -0.04144744 -0.02681276 0.11594428
0.041043233 -0.08543682 0.01514821 -0.018348658 0.18527825 -0.049670245 0.09279612 -0.017603017
0.055006444 0.007324853 -0.017089266 -0.011672919 -0.021737957 0.018808391 0.20926055 -0.09064017
0.0034707782 0.06976061 -0.0055158185 -0.10800406 -0.18926397 -0.08234061 0.05368574 -0.10624202
0.17730215 -0.08722024 -0.12425623 0.031235998 0.062746145 0.019814266 0.04144945 0.09267281
-0.5576626 -0.052362558 -0.06321378 0.076160304 -0.10158609 -0.037863366 0.08767349 -0.032686356
-0.11151502 -0.17528239 -0.070143834 -0.054162107 -0.12056331 0.0009754947 0.09563233 0.09018291
-0.01345717 0.14708552 0.47096744 0.008165988 -0.039872803 0.0006253048 0.027344096 -0.029693719
0.015064759 -0.017552616 -0.03367005 0.32217592 0.028477572 -0.02166606 0.043185893 -0.0008267565
0.0057462477 -0.03645902 -0.012423531 0.01780719 0.70856124 -0.03776554 -0.008625353 -0.14349918
-0.03242114 -0.032153077 -0.06389264 0.013111109 -0.03945142 0.1763903 0.15627761 0.07280259
-0.079537146 0.002711827 -0.05210656 0.06837327 0.024963414 0.068704695 0.10207047 0.03326492
0.044150535 -0.02708616 0.06511676 -0.0073195146 -0.03448406 0.009542002 -0.24236517 -0.22936653
0.057255883 0.038420297 0.01630473 -0.0019436645 0.047118217 0.10900564 -0.00055916206 -0.07039765
0.28211647 0.054577388 -0.055082157 -0.1522633 -0.03335175 0.21993878 -0.09073333 0.007052828
-0.14672309 -0.37498933 0.014521637 0.10483528 0.007147724 0.1481395 0.034598205 -0.008975866
-0.014016374 -0.016596565 0.17749795 -0.12125969 0.011587286 -0.05414101 0.03543291 -5.0899456e-05
0.0015094285 0.005896421 -0.059131816 -0.33687398 0.009087867 0.022452734 0.14458093 0.039656468
0.04884634 0.058361657 0.021883667 0.2846355 -0.041905563 0.060682606 0.009043881 -0.12444628
-0.041889537 0.07610411 0.15300596 0.04878941 0.15069784 -0.07281216 0.14886867 0.10043218
0.12783264 0.03612932 0.06601408 0.13831371 0.027031444 0.03580416 -0.3680469 0.034804188
-0.055929918 0.05700718 -0.02693682 -0.034138598 0.015595276 -0.004569923 -0.055033475 0.08057822
-0.0052924887 0.009810719 0.08193632 0.010833388 -0.07270573 -0.2336275 0.015873421 -0.16557565

weight f4 [32, 32, 3, 3]
00000000: 7fe9 093e f791 16bd 9c98 ac3d 9aec 8d3e
00000010: ca4a 17be 0c99 d6bd 1f52 963d 5381 563e
00000020: c42d 18bd fa4f 46be 64f3 9c3d 0e01 95bd
00000030: 8b16 adbe 850b 76be b828 81be 86cc c5bd
00000040: 76af 68be 7b53 2e3f 55af 283d c525 8ebc
00000050: dd51 0a3d cd88 67be 0df6 573e 902f fa3d
00000060: 4b97 0c3d 74ab 6a3d a723 20be d0fe 513b
00000070: f08f 19be 7bf5 9f3d 0c55 a3be 8b6d 663e
00000080: 8501 123d 217e fbbc 2279 07be d9ff 1abe
00000090: 5fb2 4cbd e1db 2f3e 4634 28bc 1801 e63e
000000a0: 62ea 15bf 9a60 82be 113a 36ba 6b67 27be
000000b0: a04c 803e 0eda e73d e7be 80be 4aa4 263e
000000c0: 366b debd 9a49 a6be a18f 223e a63b dc3d
000000d0: bfd7 7c3d 982c f2be 4b30 55bc ad3b 55bd
000000e0: 4a61 f83c 6fb6 d53a ad4d 35bd 819a 86be
000000f0: efd2 f9bc bab1 9b3d 3e69 953e ca0f 4a3e
00000100: ebe9 463e 2207 3d3d d6e1 9ebd 2b7b b43e
00000110: 58c1 8a3d c517 043e e0ba 613e 16e3 54be
00000120: 20c0 653d 0a07 673e d05d f3bb 8083 37bc
00000130: ba77 9c3e 83ee 253e 3b34 be3d ae35 3dbd
00000140: 1c16 42be 4c0e bb3d c278 e8ba eb10 683b
00000150: f9da 163f c1f3 03bf f4a7 59be 3c36 a0bd
00000160: 5cce 793e 1897 e93d 175d 413e 11eb 07be
00000170: 552d b93d 68f6 e1bc ef63 073e 8666 c13a
00000180: 18c7 383c 5c92 3f3e c8c5 2cbe 6b93 fdbc
00000190: 5190 f3bd 1d97 503c 2f62 f2be 0a1f bb3e
000001a0: 0252 0bbf 5fec 22bd 126f 05bd 129c 8f3e
000001b0: c01c 4e3e e49d d43c 3a9b a13c d9f0 1a3f
000001c0: 4a3a 95be 3d42 443e 395e 213d e6a3 263e
000001d0: f494 95be 4405 84b8 a5b7 233d 6297 61bd
000001e0: 89ee 1b3f 5df6 25bf 299c 8f3d b754 1bbe
000001f0: 7041 8c3d 1cfa 1d3e 7d8a 943c a2ce 4dbd
00000200: 0ba1 c3bd 07ba b63e ed7a 85be 4c52 e6bd
00000210: 2f7d a6bc 0d78 75bd d85d d03e 93cb 433d
00000220: 98e5 b13e ffb1 babd 415d 0c3f 1d91 8dbe
00000230: 4731 ab3e 8ef3 ebbc 34d3 99bc 1435 30bd
00000240: c6b9 0ebe b423 073e 12aa eebd 6fb1 e1bd
00000250: 3f7d 373e 07a4 583e 601c 44bd 7b3f d3bd
00000260: 097b c73d 4dc2 67bc 7f8a cf3d 5492 5d3d
00000270: d65b 093e 7aa9 423d b7f0 c8bc aa67 f1bd
00000280: 5afc 353d 8802 2d3e 43c3 1dbd 0783 b3bd
00000290: 13c2 0fbd 1ef7 873d a8a3 d6bd 25a4 c63d
000002a0: f479 b8bd 938a 9cbc b4cd 1a3e 6cca ddbd
000002b0: fc94 c93c ef44 053e 0c7a f0be a1a4 4d3e
000002c0: 5cf5 b43d 956b b33d 4fc4 abbe 89f5 d53c
000002d0: 9cf9 36be 557e 67bd b566 8fbd 73cc f53e
000002e0: fc1c 0abf 6be1 0cbe 2a33 d93d 0048 c93d
000002f0: ea7d a03e accf 2fbd 7479 483e d0ef 013c
00000300: f94b 4d3e 933e 98be d49b 2d3e 3c77 29bd
00000310: 64fa 213e 8a41 103b 6c19 223e dfc6 5fbd
00000320: 7c04 9c3c 4941 583e a1ea b6bd 3c7c cebd
00000330: 9c9b 5c3e 6af3 893e bd71 e1be fee5 c43d
00000340: 2643 e73c 7f09 e13d df3d 3bbe 8504 ad3e
00000350: 5e4c a93c fbfa 853d 06db 6abd 547d 1dbe
00000360: ccde bbbd a0b4 e5bd 0fd0 04bd f9c7 a53e
00000370: 5c0c d4be 3207 5ebe 54c2 b7bd 15fd 6e3e
00000380: 086d 803e ba99 1d3e f2a3 e03e 95dc 73be
00000390: 985c 183e 443e 1ebd df86 ce3d 8986 663e
000003a0: 2f48 0839 105f e23d ae1d a13d 51a2 4b3d
000003b0: 7819 0e3c b5a1 c93e 0c6e 10be 5ab6 133e
000003c0: 26d2 9ab9 1ccf 3a3e 5657 07be 6388 24be
000003d0: c1f0 983b b6ae b53d 2629 29be 4325 3cbd
000003e0: 4013 e43d a4cc b3bd bc7a f83d 0d20 0bbe
000003f0: 5110 62bd 1988 05bd de52 3c3d f2db 813e
0.13467978 -0.036760297 0.084275454 0.27719575 -0.14774624 -0.1047841 0.07339882 0.20947771
-0.03715302 -0.19366446 0.076636106 -0.07275592 -0.3380626 -0.24027832 -0.25226378 -0.096581504
-0.22723183 0.6809613 0.041182835 -0.017351994 0.033769477 -0.22610779 0.21089955 0.12216103
0.03432397 0.057292417 -0.156386 0.003204275 -0.14996314 0.078104936 -0.31900823 0.22502725
0.03564598 -0.030699791 -0.13229802 -0.1513666 -0.049974795 0.17173721 -0.010266369 0.4492271
-0.58560765 -0.25464326 -0.00069514016 -0.16348045 0.2505846 0.113208875 -0.25145647 0.16273609
-0.108602926 -0.3247803 0.15875103 0.107535645 0.06172919 -0.47299647 -0.013012002 -0.052058864
0.030319829 0.001630498 -0.04426353 -0.26289752 -0.030496089 0.07602258 0.29181856 0.19732586
0.1942517 0.04614938 -0.077579185 0.3525022 0.06775159 0.12899692 0.22043943 -0.20789751
0.056091428 0.22561279 -0.007426955 -0.011200786 0.30560094 0.16204266 0.09287306 -0.04619377
-0.18953747 0.09133586 -0.0017736184 0.0035410475 0.58927876 -0.51543814 -0.21255475 -0.078228444
0.24395126 0.11405772 0.18883167 -0.13273264 0.090418495 -0.027583316 0.13221715 0.0014755286
0.011277936 0.18708175 -0.16872323 -0.030954083 -0.118927605 0.012731341 -0.47340533 0.36547118
-0.5442201 -0.039776202 -0.032576628 0.2804876 0.20128155 0.025954194 0.019727338 0.60523754
-0.29146034 0.19165893 0.0393965 0.1627346 -0.29215205 -6.295231e-05 0.03997006 -0.05507601
0.6091085 -0.64829046 0.07012207 -0.15169035 0.06848419 0.1542744 0.018132443 -0.05024589
-0.09552201 0.35688803 -0.26070347 -0.11246166 -0.020323364 -0.059928942 0.40696597 0.047801565
0.3474548 -0.09115981 0.54829794 -0.27649775 0.33436033 -0.02880266 -0.018777467 -0.04301937
-0.13938054 0.13197213 -0.11653532 -0.11020171 0.17918871 0.21156321 -0.047878623 -0.10314842
0.09740264 -0.014145446 0.10133838 0.054094627 0.13413939 0.047524907 -0.024528844 -0.117873505
0.044430114 0.16895497 -0.038516294 -0.08765226 -0.035097193 0.06638931 -0.10480434 0.09699277
-0.09007636 -0.019109046 0.15117532 -0.108296245 0.024607174 0.13014577 -0.46968114 0.20082332
0.08835861 0.08760754 -0.3354821 0.026118057 -0.17868656 -0.056516964 -0.07002012 0.48007545
-0.53950477 -0.13757865 0.10605462 0.09828186 0.31346065 -0.04292266 0.1957758 0.007930711
0.20048513 -0.2973524 0.16953975 -0.041373476 0.15818173 0.002201172 0.1583001 -0.054633018
0.019045107 0.21118654 -0.08931471 -0.100822896 0.21543735 0.26943523 -0.44032088 0.0961418
0.028230261 0.10988139 -0.1828532 0.3379251 0.020666298 0.06542011 -0.057337783 -0.1537984
-0.091733545 -0.11216092 -0.032424983 0.3237913 -0.4141568 -0.21682432 -0.08972612 0.2333873
0.25083184 0.15390673 0.4387508 -0.23814614 0.14879072 -0.0386336 0.10084318 0.22512259
0.00012996861 0.11053288 0.07866989 0.049715344 0.008673064 0.39381185 -0.1410448 0.1442503
-0.00029529742 0.18243068 -0.1321691 -0.16067652 0.004667372 0.08871214 -0.16519603 -0.045933973
0.11136484 -0.087792665 0.12132785 -0.13586445 -0.05519134 -0.032600496 0.045977466 0.25363117

weight f4 [32, 16, 3, 3]
00000000: 2c2a 993d 4aef 123c e335 e13d 0eca ebbd
00000010: f06d bbbc d882 46be c91a 8b3d 8929 d2bc
00000020: 6a7b d33d ac3f e1bd 5e21 53be ab31 e7bd
00000030: 17fb 92bd d92d 78be fd32 cebe b1e0 02bd
00000040: 9a52 0abe 83f2 18be 808a 98bd d8c2 a8bd
00000050: b10a d5bd ab7e f9bd 7261 79bc 3e77 7fbe
00000060: 75e5 bdbd 2f9c ae3d c884 c2bd 2183 4cbc
00000070: ac95 3bbd e62c ffbb db37 08be ec4a 043d
00000080: 3e53 b7bd f898 78bc 8c4a e33c 8ef1 71bb
00000090: 4f63 c2bd 01f0 89be 4f3a 1abe cd64 14be
000000a0: 1480 7fbe 4b0f a8be 654c 26bd e297 5ebd
000000b0: d5a5 d1bd f68d c2bc 99a3 10be 5492 40be
000000c0: bcfd 38be 6c20 39bc de12 80be cc2b f63a
000000d0: 55f7 943c 292e 13be d22f e0bd 3827 91bd
000000e0: dfe5 07bd 91d4 c6bd 1f5e dcbc 0a2c 32bd
000000f0: b59f ea3d 7987 22be ed71 83bd f0f1 debc
00000100: 5321 d6bd 92fe 933e 6b90 d0bd 6285 8b3d
00000110: e715 e4bd 9f38 3b3e 482b 953d cddc 1ebd
00000120: cfcc 8abc 71be c0bd e5a2 7cbd 92a7 60be
00000130: 9be2 f8bd 13ad 0bbe 5c46 9ebd d137 c3bc
00000140: 8018 f83d cd23 0fbe a821 83be f758 f6bd
00000150: b9b6 5abe 9a0a 6cbe 0bef 63bd f32b 16bd
00000160: c211 14be 9a32 f2bd 9436 93bc a752 a7be
00000170: b5fe 63be 4550 8fbe 7e10 01bf 2a9c 0abf
00000180: c621 87be 66f2 29be e701 3fbd 10f3 afbd
00000190: 27fa 35be 3fd6 c63c 3323 3bbe 875d 3ebe
000001a0: 6f61 c1bd 6fd3 cb3c d842 5bbd 965f 013d
000001b0: a525 c8bd 355e 5bbe cea5 76be 95c9 d5bd
000001c0: 6ddd 77be cc0e a8be 1a21 b0bd 0f21 eebd
000001d0: c1bc 2abe fe5f f03b c404 15be 856f 2bbe
000001e0: bde5 86be dff2 26be 3d57 acbe 4a0a eabd
000001f0: 13e9 04bd e830 0fbe 3500 a3bd 86ea f1bd
00000200: f5e4 a23c 2913 55be 6591 4bbe 273c 3fbe
00000210: 86b9 42bc bc7e 77be 41d4 60be a0e3 0abd
00000220: e1b8 c33d a786 0b3e 227f 893d d15a 2b3e
00000230: 751e 373d dc8a 683e 00d1 553c 5c9c 18be
00000240: 3aaf 82be a0fd c43d 49a7 f53c 2c81 9b3e
00000250: 5f07 183f 93b2 af3d 4fda e53d 2966 133e
00000260: 581f 8bbd 3d81 0b3f 824c 793f 69b5 e7bd
00000270: d59a dc3e 6f68 313f 9721 57bd 7b61 453e
00000280: 77f2 a13e d045 24be d1b9 0e3d 1aa7 223e
00000290: 12d5 9dbd f1a0 653d 7a68 d23e 07ef a2bd
000002a0: 01a1 5c3d 0697 083e f60d 7dbe 6588 70bd
000002b0: d21a b33d 4dd6 4b3d aadd 413e 56e7 3f3f
000002c0: 18dd a63e f8ab bbbc 5aad a13e 5c0c 22bd
000002d0: 9d8b 1f3f 3208 1e3f 5655 593e 8b65 3c3f
000002e0: 5555 543e 24cb ee3e 7067 6c3e 18f5 873e
000002f0: df54 01be 95cc 24bd 5fe0 b33e f55f 5cbc
00000300: 9a50 343d f067 5e3f fc2b 9b3e 5aa8 193d
00000310: dbec 6f3e 440b 3cbe 8af1 063f 363a 173f
00000320: c54e 6c3a 4e55 b33d 60ad 90bd b7cf 40bd
00000330: ad89 1c3f 49c4 47bd 1435 84be 0e3b 95bd
00000340: 4c25 c43e 2bf3 863e 1e64 a93e 4cfe fb3e
00000350: e107 2c3e 8f3c 763d bfbc 8a3e 5835 01bd
00000360: 4e04 72bd 63f6 5abe f6a9 2f3d ca5f bc3e
00000370: 0c35 c9bd 6aa0 8b3e a878 093e c5a0 19be
00000380: b01b 98bd 15ee cf3e 9805 e83e 18c3 69be
00000390: 1c8e c93e 7b6f 223f fcb9 033e d365 913e
000003a0: c94f f43d ce6f 9dbe 9a63 d0bc d1ec fd3e
000003b0: b71a 283e 6669 243e 1b72 4a3f 4ee9 cb3e
000003c0: e4a5 31be b607 ae3e e983 d13d 0fdd 8f3d
000003d0: 4553 623e d453 3a3e 3dd8 2ebe a455 423e
000003e0: 2937 193e 19ff 1b3c 095b 06be 68da 58bd
000003f0: 02f5 da3e 345b 5b3f a190 95be 196f 163f
0.07478747 0.008968184 0.10996606 -0.11513148 -0.02287957 -0.1938585 0.06792218 -0.025654571
0.10326274 -0.109984726 -0.20618197 -0.1128877 -0.07176798 -0.2423624 -0.40273276 -0.031952564
-0.13508072 -0.14936261 -0.07448292 -0.082402885 -0.1040243 -0.12182363 -0.015220987 -0.24947831
-0.09272281 0.085258834 -0.09497982 -0.012482435 -0.045797035 -0.0077873347 -0.13302557 0.032298014
-0.08951424 -0.015173189 0.027745508 -0.003691766 -0.09491598 -0.2694092 -0.15061305 -0.14491577
-0.24951202 -0.32824168 -0.0406002 -0.054344065 -0.10236708 -0.023749333 -0.14124908 -0.1880582
-0.18065542 -0.011299234 -0.25014395 0.0018781363 0.018184343 -0.14373077 -0.10946621 -0.070875585
-0.033178207 -0.097085126 -0.02690035 -0.04349903 0.11456243 -0.15871991 -0.06418214 -0.027214974
-0.10455575 0.2890516 -0.101837955 0.0681255 -0.1113699 0.18283318 0.07283646 -0.03878479
-0.016943363 -0.09411324 -0.061678786 -0.21938923 -0.121525966 -0.13640241 -0.07728264 -0.023830326
0.12114048 -0.139785 -0.25611615 -0.120286874 -0.21358766 -0.23050919 -0.05564789 -0.036663007
-0.14459899 -0.11826058 -0.01797036 -0.32680246 -0.22265132 -0.27990928 -0.5041579 -0.5414454
-0.26392955 -0.16596374 -0.046632674 -0.08591282 -0.17771207 0.024272082 -0.18275146 -0.18590365
-0.09442412 0.024881093 -0.053530544 0.0315853 -0.09772805 -0.21422656 -0.24086687 -0.10438839
-0.24205561 -0.3282379 -0.086000636 -0.11627399 -0.16673566 0.007335662 -0.14552599 -0.1674176
-0.2634715 -0.16303585 -0.33660308 -0.11427744 -0.03244884 -0.139835 -0.07959024 -0.1181231
0.019884566 -0.2080809 -0.19879682 -0.1867529 -0.011885053 -0.24169439 -0.21955968 -0.033908486
0.09556747 0.13625585 0.06713702 0.16733862 0.04470678 0.2270922 0.013050318 -0.14903396
-0.25524312 0.09618688 0.029986994 0.30371988 0.5938625 0.08578982 0.1122328 0.1439444
-0.06793088 0.54494077 0.97382367 -0.11313898 0.43086877 0.6929998 -0.05252227 0.19275467
0.31630298 -0.16042256 0.034845177 0.15884057 -0.077066556 0.05606169 0.41095334 -0.07955747
0.053864483 0.13338861 -0.24712357 -0.058723826 0.0874535 0.04976492 0.18932214 0.74962366
0.32590556 -0.02290915 0.3157757 -0.039562568 0.6232241 0.61731255 0.2122396 0.7359244
0.20735677 0.4663936 0.23086333 0.2655418 -0.12630032 -0.040234167 0.3513212 -0.013450612
0.04402218 0.86877346 0.30306995 0.03751407 0.23430197 -0.18363672 0.5271231 0.590732
0.0009014423 0.08756505 -0.07064319 -0.047073092 0.61147577 -0.048771176 -0.25821745 -0.072866544
0.38309705 0.26357397 0.33084196 0.4921745 0.1679988 0.060116347 0.27097127 -0.031545013
-0.059086137 -0.21383052 0.042886697 0.3679183 -0.09824571 0.27270824 0.13424933 -0.15002735
-0.07427156 0.4061133 0.45316768 -0.22828329 0.39366233 0.63451356 0.12863916 0.28397998
0.1192928 -0.30749363 -0.025438119 0.4959474 0.16416441 0.16055831 0.7908036 0.39826435
-0.17348439 0.33990258 0.10230238 0.070245855 0.22102077 0.1819604 -0.17074676 0.18977982
0.14962448 0.009521269 -0.13120665 -0.052942663 0.4276505 0.8568604 -0.29211906 0.5876327
