samples/parallel/tensor_mnist/model.pth (torch, 79496 bytes, 12 tensors)

weight f4 [16, 1, 3, 3]
00000000: f128 d13e beaa 9abe 195e 9fbd 090f 973e
00000010: fad5 66be e2d5 42be d6f4 26bc 2772 dbbd
00000020: 1465 e43d 2a3c 3ebe 69b9 b6be 8551 45b9
00000030: 30f7 863e 1c95 edbe 5a14 27be 8313 84be
00000040: 3fab abbe ca37 acb8 1281 653e e908 febd
00000050: ad17 17be ef96 b63d 70f5 d33e 15e6 5d3e
00000060: fdb8 a2be 6b67 0abe f9a4 883d 4726 2a3d
00000070: 2aef 97be 5002 523e 3a47 18bf 435d 85bc
00000080: 1b84 c43d d02b 0dbd 6b91 b43e 6042 3d3e
00000090: c4b8 313e 10a1 0cbe 7872 c1be 9665 f6bc
000000a0: 05b6 c8be b739 193e 9a26 9bbe 9638 aabd
000000b0: 39fb a63e 79e9 a9be 1690 aabe b59a c63e
000000c0: bc49 8c3e 60d3 9e3e f438 25be 8219 7b3c
000000d0: 58d0 07bd a350 a1be 59c5 e03d 6027 1fbe
000000e0: 10de bcbe de6d 5a3e bf3b 833e 97dd f4be
000000f0: b3c9 aa3e c5b7 47be d0cd cfbe 19b5 223e
00000100: a641 a83e 9f7a ab3e 13b1 dfbe 7bb7 93be
00000110: cc0c 873e f549 e3bd 7305 9abe 3c4f 7cbe
00000120: aaa8 50be 00ec c6bd 26ee 803e beb8 1abe
00000130: 67fe 8cbe b6ef 20bf 8e91 c63e 3781 493e
00000140: b403 35be 59ec cebc c92e 88be 4d80 a83d
00000150: 3fb4 0f3d 6ace c0be 3d3d c53e 713f 1b3e
00000160: c718 dabe cef4 fa3c 36ba 4d3d 9278 703e
00000170: d7e8 353e 021c d03d 07d2 953e 9795 c7be
00000180: 6ad7 d5be b03c b3be 210c 72be 2dcf 573e
00000190: 13f0 9b3e ece3 b13e a73f 89be e72e f4bd
000001a0: c56d 7d3d 7f3b 4c3e 565a 113f 04fb d83c
000001b0: 2cdc 9ebd 06bb 283e 76a7 90be f0ee afbe
000001c0: b76c 053f d4d0 d03c d8df 8abe ced4 903e
000001d0: 4ed6 93be a85a c5be b027 d1bd bd8f 07bd
000001e0: 81cd 1e3e 273a 313e e921 263e 2bdb a73e
000001f0: 7d48 98be e56a 623e fa34 2ebb 82cd 59be
00000200: d896 e4be 362f b13e cc9d 4abe 36f5 81bc
00000210: 729c ce3e 91c1 5a3e d43a b23e 1f15 d93c
00000220: dd94 b43e 7d93 69bd 2b8b debd db97 903d
00000230: ed27 5bbe e89a a03e 6c9b 603e 8ac2 debe
0.40851548 -0.3020839 -0.077816196 0.29503658 -0.22542563 -0.19026902 -0.010190209 -0.10715132
0.111520916 -0.18577638 -0.35688332 -0.00018817752 0.26360464 -0.46402824 -0.16316357 -0.25796136
-0.33529088 -8.211991e-05 0.22412518 -0.12404043 -0.14755125 0.08915507 0.4139819 0.216698
-0.3178176 -0.13516013 0.06672091 0.04154041 -0.29674655 0.20508695 -0.59483683 -0.016279822
0.095955096 -0.03446561 0.35267195 0.18482351 0.17355639 -0.13733315 -0.37782645 -0.030077737
-0.3920137 0.14963423 -0.30302888 -0.08311574 0.32613543 -0.33185938 -0.33313054 0.38789907
0.27400005 0.3102064 -0.16135007 0.015325906 -0.033157676 -0.31506833 0.10975141 -0.15542364
-0.3688817 0.21330974 0.2563152 -0.4782531 0.3335701 -0.19503696 -0.4058671 0.15889396
0.32862586 0.3349199 -0.43689784 -0.28850922 0.2637695 -0.110980906 -0.30082282 -0.246396
-0.2037684 -0.09712982 0.25181693 -0.15109536 -0.27537844 -0.6286577 0.38782924 0.19678198
-0.17677194 -0.025259184 -0.26598194 0.082275964 0.035084005 -0.3765748 0.38523284 0.1516092
-0.4259703 0.03063431 0.050226413 0.23483494 0.17764603 0.10161592 0.292618 -0.38981315
-0.4176591 -0.35007238 -0.2363744 0.21075125 0.304566 0.34744203 -0.26806375 -0.119230084
0.061872263 0.19944571 0.56778467 0.026486881 -0.07756838 0.16477594 -0.28252763 -0.34361982
0.5211901 0.025490202 -0.27123904 0.28287357 -0.2887444 -0.38545728 -0.10212648 -0.033096064
0.15508081 0.1730734 0.16223873 0.327844 -0.29742804 0.2211109 -0.002658187 -0.21269801
-0.44646335 0.34606332 -0.19786757 -0.015863996 0.40353733 0.21362902 0.34810507 0.02649933
0.35269824 -0.05702542 -0.10866388 0.07060214 -0.21401949 0.31368184 0.21934289 -0.43507797

weight f4 [16]
00000000: 3f26 563f 2b49 193f 6201 833f b8cf 843f
00000010: df06 933f a886 513f 989e 7f3f fddb 913f
00000020: a83a 953f bb70 713f 8d2d b13f 5cc0 7c3f
00000030: 694a 6a3f f207 223f 0b4b 973f d3ef 613f
0.8365211 0.5987727 1.0234797 1.0375891 1.1486472 0.81846094 0.9985137 1.139526
1.1658525 0.9431264 1.3842026 0.9873102 0.9151979 0.63293374 1.1819776 0.8825657

bias f4 [16]
00000000: 5122 18be 2c46 5b3d d646 a2be b28f 56bc
00000010: f84f edbd 5d35 81be a71f 3e3e 29dc 41bd
00000020: 1a6a a53e eca1 673d a181 123e 5b2a 4abe
00000030: 5c31 b4bc 4dd4 a0be ba96 49be bd40 d7be
-0.1485684 0.053533718 -0.3169467 -0.013095783 -0.115875185 -0.25236025 0.18566762 -0.0473291
0.32307512 0.056550905 0.14307262 -0.1974272 -0.021996193 -0.31411973 -0.19686404 -0.4204158

running_mean f4 [16]
00000000: 1d5c 8e3d a400 b539 460d ce3d c847 d03d
00000010: 7be6 083d 5c15 393d fd81 873d b849 ab3d
00000020: 7832 f83c dcbd e13c 68e3 653d b81f 9b3e
00000030: ec56 d63c 4a9e d03d b755 3c3e a522 e43d
0.06951163 0.00034523488 0.100611255 0.10169941 0.03342293 0.045186386 0.0661659 0.0836367
0.030297503 0.027556352 0.056125075 0.30297637 0.026164494 0.10186441 0.18392073 0.111394204

running_var f4 [16]
00000000: e736 a73c c016 c437 aee5 e83c 1d2f 1b3d
00000010: a4ba c43b e211 143c 7919 c83c 5f27 113d
00000020: d1b5 f43b 2cbd b03b 21a9 933c fd1b 463e
00000030: 0034 c53b 3f3a f03c fed2 c23d 9ba3 1d3d
0.020411922 2.3375615e-05 0.028429832 0.037886728 0.0060036946 0.009037467 0.024426209 0.035437938
0.0074679633 0.005393645 0.018024983 0.19346614 0.006018162 0.029324649 0.095129 0.038486104

weight f4 [96, 16, 3, 3]
00000000: 17d6 c9bd 51eb afbd 6a64 203c 437a d93d
00000010: 07f3 abbd 71d3 6fbe 0190 44be d9c2 5b3c
00000020: 0f64 73be 2211 303e 432a 9dbe 4835 acbd
00000030: d94e 84be a17f 10be 522c ab3c 2b70 e2bc
00000040: 5995 5ebd 509a 8b3d 2969 c33d d301 41bd
00000050: e762 3c3e 1730 743e 5517 6d3e 6e91 353e
00000060: 8ac6 db3d ba71 3ebe 4e31 a2bc abb8 4dbe
00000070: 1308 96be a163 133e bce9 a7be 029e b2bd
00000080: 69b7 47be a6c9 61be c9b7 623e b23b 063e
00000090: e80a 123e 58fc 9b3e d05f aabd 5b79 d2bc
000000a0: f316 83bd a0ce 783e e3c3 93bd 53c3 8a3e
000000b0: de58 81bd 441a 933d 0cd7 e2bc 60df 273d
000000c0: 48aa 853e e060 be3d 241a 233c 585d 5b3c
000000d0: cf4f 3c3e 0e03 c73d e8d9 ebbd 10b2 043e
000000e0: 6593 efbd abfc 4ebe 62b3 033e 12fb d8bd
000000f0: 0166 2cbe ff16 0abd d2d1 a2be 3b1d 34be
00000100: fd69 5cbe 4d13 0abc e2b4 0a3c 3ce3 a83e
00000110: db3d c23e 3f23 b53e 9ecd edbd c250 aabe
00000120: 8681 cfbd 22f3 ad3c d7d8 163e 2682 683e
00000130: fa36 393e 0a4e a9be 0c50 e93d dfca 003e
00000140: 6cbc 9ebe 06ab 4fbd 1622 c1bd a63d c4bd
00000150: 0a76 9b3d 3a24 ee3d 5774 b6bc 28a2 4d3e
00000160: fa6f f6bd e3b4 ae3d 73b2 c9bd 86eb b4be
00000170: e800 c53c 7e7f 043e b022 733e eb13 e73d
00000180: 8e38 d23d 7f0c c13e ed91 efbe ce41 a83d
00000190: 092a 90be d868 a33d 70ad e4bd 4567 56bd
000001a0: 9ea6 2abe e93d 16be 07e9 3cbe d8f7 bcbd
000001b0: 83c9 5e3b ae47 1f3e bfd2 5dbe b1ec 2e3d
000001c0: 7360 8ebc cf7d 613b 6a5b 8f3d 1deb 393d
000001d0: bc8f 4dbe 90f6 333d 6598 6d3d 9864 263e
000001e0: 5075 1bbe 688f 043e 2b32 dbbd 9188 b63d
000001f0: aa7c 77be da68 493e a8b2 4cbd ac3e 193e
00000200: cd53 4f3e 640c a23c 8991 f9b8 7f26 40be
00000210: 02d1 ae3e 3956 fdbc 5f70 c6bb c094 493e
00000220: 4b0e 97be 85d3 443d 3ac6 2e3e e44c 043e
00000230: 4c8b a9be f81a 63be 8c05 c6be e105 dfbe
00000240: b127 253e bbfc 593e b7a8 3fbd b296 4a3e
00000250: c670 dc3d a967 97bd 8cb2 483e 23ad b23e
00000260: 7780 013e b6c3 2f3e f5d9 1e3e cf57 24bd
00000270: b19c 723e 3282 c93d 0358 b2bc 75cb 9fbd
00000280: d0ab fe3d b6c3 573d 7b2a 083d 1b44 473e
00000290: 9192 883e ab57 8d3e fe49 063f 56d4 893e
000002a0: 2bcc eabd 08b4 103d 0606 ccbd 2afb 0dbd
000002b0: ff05 22ba cb69 293e 6da4 37be 2b6b 423e
000002c0: 2354 ac3e e37b 053c 277d 5d3e 9fe1 473e
000002d0: 0431 b93d 47f0 bd3d f32e d13d 56ce 50be
000002e0: 4049 ccbd 8700 7c3e fe4b 23be afc9 df3d
000002f0: 5ebb 943e 91e7 703d 3bd4 6a3e 4ee2 b5bd
00000300: b978 933d 493f 8c3e 8185 653d a995 833e
00000310: ada9 df3d eda0 e8bd 74f6 ffbd 5b5a fcbd
00000320: b2ef 06be 8d79 183e 1a1a 2fbe f556 56be
00000330: 14ab a23e 2fad 163e f380 c33d 48f8 7e3d
00000340: ea90 963e 345b 4e3e 5087 9c3d 35f2 e33e
00000350: 8861 393e 71f8 833c e868 a73d 0404 81be
00000360: 13bf 1fbe 8422 9f3d 84c2 223e b3a9 313e
00000370: c5c5 a73e dda1 33bd 782a 0f3e 9e7f 14bd
00000380: a098 a7be 3968 053d fe52 55be a7bb e93b
00000390: b9c5 883e b17c 843e 27e6 8b3e d2b8 623e
000003a0: 5bbc 603d 6aac 37bd 8fca 9abd 5df3 a13e
000003b0: 33a5 2f3e 5088 b5be 0e8a 743d e42c 49be
000003c0: cc21 57be 784d 18be e2da a83d b549 2a3e
000003d0: c9a2 4cbd b7a7 c7bd 9b7a 5d3b 199c 423d
000003e0: 0db0 7f3c a06f e0bd e46e f23d 1d3c ba3d
000003f0: f590 bc3b 017c 6ebd aa20 04be 9433 423e
-0.098552875 -0.08589805 0.009789566 0.10619023 -0.08395963 -0.23420502 -0.19195558 0.0134131545
-0.23768638 0.17194036 -0.30696306 -0.084086 -0.25841406 -0.14111187 0.020895157 -0.027641376
-0.054341648 0.06816542 0.09541542 -0.04712088 0.18397103 0.2384647 0.23153432 0.17731258
0.10731228 -0.1859807 -0.019798901 -0.20089976 -0.29303035 0.14393474 -0.32795513 -0.08721544
-0.19503559 -0.22049579 0.22140421 0.1310871 0.14261973 0.3046596 -0.08319056 -0.025692632
-0.064008616 0.24297571 -0.07215097 0.27102146 -0.06315778 0.07182744 -0.027690433 0.04098451
0.26106477 0.09295821 0.009954963 0.013388954 0.1838982 0.097173795 -0.11516172 0.1295855
-0.11698035 -0.20213573 0.12861398 -0.10594763 -0.16835786 -0.033713337 -0.31800705 -0.17589276
-0.21524806 -0.008427453 0.008465977 0.32985866 0.37937817 0.35378453 -0.11611484 -0.33264738
-0.101321265 0.021234099 0.14731155 0.22705898 0.18087378 -0.33067352 0.11392221 0.12577389
-0.3100313 -0.05070021 -0.094303295 -0.09582071 0.075908735 0.116280034 -0.022272272 0.20081389
-0.120330766 0.08530595 -0.098484896 -0.3533594 0.024048284 0.1293926 0.23743701 0.11283096
0.10264693 0.37704846 -0.4679102 0.08215676 -0.2815707 0.07978982 -0.11165893 -0.05234458
-0.16665122 -0.14672054 -0.18448268 -0.0922696 0.0033994622 0.15554687 -0.21662425 0.042706195
-0.017379975 0.0034407263 0.06999858 0.045390237 -0.20074362 0.043936312 0.058006663 0.16249311
-0.1518147 0.1294533 -0.10702928 0.08912767 -0.2416865 0.19668904 -0.049975067 0.14965314
0.20246811 0.019781299 -0.00011900353 -0.18764685 0.34143835 -0.030924903 -0.006055876 0.1968565
-0.29503092 0.048053283 0.17067805 0.12919956 -0.33114088 -0.22178257 -0.38676107 -0.43559173
0.16128422 0.21287815 -0.04679176 0.19784048 0.10763697 -0.073928185 0.1959936 0.34897718
0.12646662 0.17164502 0.15512832 -0.040122803 0.23692586 0.09839286 -0.021770483 -0.07802478
0.124351144 0.05267688 0.033243638 0.19459574 0.2667432 0.27605948 0.52456653 0.26919812
-0.11464723 0.03532794 -0.099620864 -0.034663357 -0.0006180703 0.16544263 -0.17933817 0.18986194
0.3365794 0.008147213 0.21629773 0.19519661 0.09042552 0.09274345 0.10214033 -0.20391211
-0.09974909 0.24609576 -0.15946957 0.1092714 0.290492 0.05881459 0.22932522 -0.08881055
0.072007604 0.27392033 0.056035522 0.2570012 0.10921035 -0.11358819 -0.12498179 -0.123219214
-0.13177374 0.14890118 -0.170998 -0.20931609 0.31771147 0.14714502 0.095460795 0.0622485
0.29407436 0.20151979 0.07642996 0.44520727 0.18103611 0.016109677 0.08174306 -0.25198376
-0.15600233 0.07770255 0.15894514 0.17349891 0.32768074 -0.043855537 0.13981044 -0.036254518
-0.3273363 0.032570098 -0.2083244 0.0071329656 0.2671335 0.25876382 0.2732403 0.22140816
0.05486713 -0.04484216 -0.07558166 0.31630984 0.17152862 -0.3545556 0.05970197 -0.1964603
-0.21008986 -0.14873302 0.082448736 0.1662968 -0.04995993 -0.09748786 0.0033795002 0.047512148
0.015605939 -0.10958791 0.11837557 0.09093497 0.005754585 -0.058223728 -0.12903085 0.18964988

weight f4 [96]
00000000: 791c f73f 710d e93f 25f8 c33f ccb3 e43f
00000010: 406c e83f 1685 c83f 0ce2 d23f a29f ba3f
00000020: e5e8 dc3f 18cb cc3f b336 cd3f 3a75 ec3f
00000030: 595a e23f d4ba c03f 4805 0140 16bc b53f
00000040: 54a5 f43f 7cb9 c83f a0cd d63f 8917 e43f
00000050: 6baf 0140 277e dc3f b196 c23f b25c cd3f
00000060: c3e3 e03f f411 d63f f882 e03f 2db9 ee3f
00000070: 90ec d03f bbc9 e63f bc87 e43f c589 da3f
00000080: 064b d83f dc45 c83f d596 0540 f167 ea3f
00000090: c8af df3f fb9b d23f 7360 e03f 2d42 c63f
000000a0: e494 ea3f 1d4c 0240 4428 df3f f0ea c53f
000000b0: 1065 e83f 728a ef3f 63cb ad3f e8d0 d43f
000000c0: 7d4a b83f 7a1b 0640 13ee 0040 457c c83f
000000d0: 966e e63f 1e75 fa3f 54c7 a43f 8cee e63f
000000e0: ea30 cd3f cb16 f23f bfd0 fb3f ee7c ed3f
000000f0: f03b 0440 b5f7 eb3f 6d02 d83f 48a6 cb3f
00000100: cb64 bb3f e15d ca3f faa9 d03f e55b ef3f
00000110: 7829 f23f c0c5 fe3f 660b e93f 22a6 e33f
00000120: fc94 c23f 745f f33f a267 d33f 68ab ec3f
00000130: b427 0940 21dc cd3f e598 e53f bbd0 d43f
00000140: 895f d93f a89a da3f 1c2b e23f e145 cf3f
00000150: 8df4 cf3f e425 c73f 456a fe3f b6c9 f33f
00000160: cfea 0440 13a4 dc3f 8017 ee3f 167e f43f
00000170: cbed ed3f 39ea ee3f 6f4a 0040 813e e43f
1.9305564 1.8207227 1.5310103 1.786737 1.8158035 1.5665615 1.6475234 1.4579966
1.7258574 1.5999479 1.6032318 1.8473275 1.7683822 1.5057015 2.0159473 1.4198024
1.9112954 1.5681605 1.6781502 1.7819682 2.0263317 1.7225999 1.5202237 1.6043913
1.7569507 1.6724229 1.7539968 1.8650261 1.6322193 1.8030313 1.7853923 1.7073294
1.6897895 1.5646319 2.087331 1.831297 1.7475519 1.6453851 1.7529434 1.5488945
1.8326688 2.0358956 1.7434163 1.5462322 1.8155842 1.8714125 1.3577694 1.6626253
1.4397732 2.095427 2.014531 1.5662924 1.8002498 1.9566991 1.287333 1.8041549
1.6030552 1.8913206 1.9673079 1.855375 2.0661583 1.8434969 1.687574 1.591012
1.4640135 1.58099 1.6301873 1.8699919 1.8918905 1.9904099 1.8206604 1.7785075
1.5201716 1.9013505 1.6516001 1.8489809 2.1430483 1.6082803 1.7937285 1.66262
1.698228 1.7078447 1.7669406 1.61932 1.6246506 1.5558438 1.9876181 1.9045932
2.0768316 1.7237571 1.8600922 1.9100978 1.8588194 1.8665229 2.004543 1.7831575

bias f4 [96]
00000000: dcf9 363e dff0 1bbd 5c41 d2bc 13a3 a43d
00000010: 356e 53bc a16c 093e 61f9 98bd 5bd1 85bc
00000020: b066 e83d 8fd5 cd3d c430 323d 7593 383e
00000030: 1578 71bd 92c3 973d 5a24 2d3e 1c1b 953b
00000040: 1828 10bd 364e 403c af72 b73d 89d6 243e
00000050: 151a 303d 859c 35bd 6e68 973d 4d13 25bd
00000060: 0f62 ae3d f01a 0f3e e8f2 cc3d 1c63 183c
00000070: d92d a63c 02e6 063e d6d7 1b3e 1b05 143d
00000080: 606e 193d 45d3 2b3e b532 e03d 79ef 473e
00000090: b8a1 13bc 563b 5f3d 3a64 a1bc dacf 3bbd
000000a0: 1ba4 4f3d 54b8 b63d 0a52 103e 655a eebc
000000b0: 270e 70bc 628a 843c a123 04be 889c 1ebd
000000c0: 220b 0cbd 4406 093c 05c4 87bd c20e c73d
000000d0: f5f1 4b3e 7c1c 243d 085d ec3d 2c07 0e3d
000000e0: e50b c63c c6c3 eabd 03dd 9d3d 9f96 6b3d
000000f0: eedf 6dbd c5eb 333d e0a4 4cbd d6f6 b1bd
00000100: df62 d23d 1ded 63bc 4995 123e 187a fcbd
00000110: c512 ce3d 3f98 8cbc ffff 773d ce81 e63d
00000120: 9165 bcbc af28 223e 0aa8 e53d aca1 043e
00000130: d6a7 213d e6a5 8cbc 13ab da3d f1dc bc3d
00000140: 82a9 6d3a 20c4 91bb 6b2e eabd 9f01 083e
00000150: b1c8 253d 79f6 103e bd84 c9bc 7760 02be
00000160: f4c9 2e3d 66b3 bfbb e881 5f3d 24d6 cb3d
00000170: 6659 283e 5fbe 8ebc 4de3 0cbd 18d2 33be
0.17868751 -0.03807151 -0.025665931 0.080389164 -0.012904693 0.13420345 -0.0746944 -0.01633518
0.11347711 0.10050499 0.043503538 0.18025 -0.05895241 0.07410349 0.16908398 0.004550351
-0.035194486 0.011737397 0.08957421 0.16097464 0.042993624 -0.04433872 0.07392965 -0.04030161
0.08514797 0.1397512 0.10007268 0.009300973 0.020285534 0.13173679 0.15219054 0.03613768
0.037458777 0.16779812 0.109471716 0.19524945 -0.009010725 0.054499947 -0.019701112 -0.04585252
0.050693613 0.089218765 0.14093795 -0.029095838 -0.014651812 0.016179267 -0.12904216 -0.0387235
-0.034190305 0.00836331 -0.06629185 0.09719612 0.19916518 0.040066227 0.11541182 0.03467481
0.024175594 -0.11463122 0.0770817 0.05751669 -0.058074884 0.04392602 -0.049961925 -0.08689658
0.102727644 -0.013911513 0.1431476 -0.12327975 0.10062174 -0.01716244 0.06054687 0.11255227
-0.02299765 0.15835832 0.112136915 0.12952298 0.0394667 -0.01716895 0.10677161 0.09221829
0.0009066091 -0.0044484288 -0.11434635 0.13281868 0.040474597 0.14156522 -0.024599427 -0.12732111
0.042673066 -0.0058502434 0.054567248 0.099529535 0.16440353 -0.01742476 -0.03439646 -0.17560613

running_mean f4 [96]
00000000: f852 0640 d428 3040 b591 1340 bd6d eb3f
00000010: 4326 e03f fd20 9740 eba3 5140 4cc9 1a40
00000020: 8e64 8840 558c 5d3f fd50 ee3f d838 2a40
00000030: 9b7c 0a40 d73d e83f 0a31 3d40 aa1f d03f
00000040: a85a 0d40 f9ca c03f 1a83 1740 86fe 2b40
00000050: b0b4 1e40 b715 8040 736e 3840 c786 0d40
00000060: 0cf3 2f40 6d48 5b40 e077 1540 1af0 0e40
00000070: d1d6 d03f 328a e73f 37e4 2b40 e1f9 8940
00000080: 2e9d 3d40 b5d4 0a40 53aa f53f 6869 f53f
00000090: fff0 2040 085d e23f c080 0740 1a75 3e40
000000a0: ff9a 3340 7cc3 dd3f ef88 2840 07aa da3f
000000b0: 0807 3c40 87f4 0540 5976 8640 271f 3140
000000c0: 7b32 0540 0f98 0940 2d5c 3b40 676f 903f
000000d0: ffe9 eb3f d86b fb3f 9483 0f40 9bb4 3740
000000e0: 26b1 2240 02cc 6040 c52a ed3f b865 0940
000000f0: db57 2140 b137 f73f cdfd 9e3f 945c 1a40
00000100: bdba 4a40 d962 0840 4f00 0a40 e0fe 8740
00000110: 697b 993f 99e5 c43f a45d a43f 90d7 0f40
00000120: 4cf8 3740 a3cf f63f 9d13 9d40 fb2c ea3f
00000130: 9d5c 1840 3fdb ec3f be5d ad3f f6a4 1540
00000140: 6d1a 3340 95e9 2340 cfe6 fc3f 31a5 1940
00000150: 1a06 dd3f c46b 3240 0fa3 6f40 33fe 5c40
00000160: 064d 3940 f72f 5e40 8a19 a73f 19a9 3840
00000170: 1e98 0d40 1e1d 6740 d252 e63f cba3 3340
2.098814 2.752492 2.3057683 1.8392864 1.7511677 4.722777 3.2756298 2.4185362
4.2622747 0.86542255 1.8618466 2.6597195 2.1638553 1.8143872 2.956118 1.6259663
2.2086582 1.5061942 2.3673768 2.6874099 2.4797783 4.0026507 2.8817413 2.2113512
2.7492094 3.4262955 2.3354416 2.2334046 1.6315557 1.8089049 2.6858041 4.311753
2.9627185 2.1692326 1.9192604 1.9172792 2.5147092 1.7684641 2.1172333 2.9758973
2.8063352 1.7325282 2.6333578 1.7083138 2.9379292 2.0930498 4.2019467 2.7675264
2.081206 2.149906 2.927501 1.1283997 1.8430785 1.9642286 2.242406 2.8703983
2.5420623 3.5124516 1.8528677 2.1468334 2.5209873 1.9313871 1.2421204 2.4119005
3.1676476 2.1310332 2.1562688 4.2498627 1.1990787 1.5382568 1.2841077 2.247532
2.8745298 1.9282116 4.908644 1.8294977 2.3806527 1.8504409 1.3544233 2.3381934
2.798488 2.5611317 1.9757937 2.4007075 1.7267487 2.7878275 3.7443273 3.453015
2.8953261 3.4716775 1.3054669 2.885321 2.2124095 3.6111522 1.7994025 2.8068721

running_var f4 [96]
00000000: 19b5 6440 59ae ab40 3b22 a43f 1d24 4c40
00000010: 1b3b 4840 4c05 0e40 1a55 b93f d745 3b3f
00000020: da40 eb3f 93a0 773f 2c30 8740 d879 1040
00000030: 158f 7140 029a 4840 e46e 6040 55ff b13f
00000040: aa94 4e40 6755 2340 db31 2f40 9cbd 8b3f
00000050: b9c4 a540 3655 b73f 13df 3240 117f bb3f
00000060: f8ed 0340 f30c c83f a47c 3a40 7e31 0740
00000070: d9af 3c40 44d8 1840 2ee4 be3f 52b1 f43f
00000080: 9755 893f da89 d63f 2261 3240 1a87 0140
00000090: d0fa f73f 76a0 4140 34d5 9c40 0fc6 cc3f
000000a0: 5ac8 ad3f bafc 1640 643f 9d40 c569 2c40
000000b0: 8c37 0340 0764 c13f ee7f b13f aa17 b33f
000000c0: f299 753f ea1c 5640 dc8d a540 a5c6 8f3f
000000d0: 633b 3a40 1e26 7140 7668 b53f 93f0 c03f
000000e0: d1f4 1a40 daef 0240 f3c9 6a40 d171 8240
000000f0: ead5 a440 3957 ec3f e8a9 1640 1c5f e740
00000100: 9263 1740 8ed0 8340 10a2 6040 6132 1240
00000110: 2f6f 1a40 c881 3640 2b5a 4740 6311 1f40
00000120: b86d dc40 4de9 1a40 989b 983f 713a 8d40
00000130: 3330 2f40 8770 3d40 6a6c 0840 3f9c c53f
00000140: b0b4 b140 e541 f13f 0d53 9040 7700 7e3f
00000150: cb52 3a40 6506 fd3f 22ae f73f 410f 0240
00000160: 1ba3 3440 4985 ca3f 0e34 fa3f 2317 b43f
00000170: 9acf 0940 0f12 ee3f d974 1e40 27df c93f
3.5735533 5.3650327 1.2822946 3.1897042 3.1286075 2.2190733 1.4479096 0.7315344
1.8379166 0.9672939 4.2246304 2.2574368 3.774358 3.1344 3.5067682 1.3906046
3.2278237 2.5520875 2.737418 1.0917239 5.180264 1.4322879 2.7948654 1.4648153
2.0613995 1.5628952 2.9138575 2.1123958 2.948233 2.3881998 1.4913385 1.9116614
1.0729245 1.6760819 2.7871785 2.023871 1.9373417 3.0254188 4.901026 1.5997943
1.3576767 2.3591752 4.913988 2.6939557 2.0502653 1.5108651 1.3867166 1.3991597
0.95938027 3.3455148 5.173567 1.1232497 2.9098747 3.7679515 1.4172504 1.5073417
2.4211924 2.0458894 3.668576 4.0763936 5.1511126 1.8464118 2.3541203 7.23036
2.3654523 4.1192083 3.5098915 2.284325 2.413036 2.8516712 3.1148784 2.4854362
6.8883934 2.4204895 1.1922483 4.413384 2.7373168 2.9599931 2.131617 1.5438308
5.5533066 1.8848234 4.510138 0.9921946 2.9113033 1.9767576 1.9350016 2.032181
2.8224552 1.5821925 1.9547136 1.4069561 2.153296 1.8599261 2.4758818 1.5771226

weight f4 [10, 384]
00000000: 9334 fdbc f600 393e 2068 5bbe b18f fb3d
00000010: 575a 073d c9a8 b73e 6168 33be 404e c9bd
00000020: a415 03be 72ed 833d 9f5f 77be bb9a 4c3d
00000030: 8f07 9f3e 9406 8b3e 6035 8c3e fa59 1fbe
00000040: 7b4d b73e 2e72 e93e 0522 a73c 1dd0 53be
00000050: 1890 1fbe 9476 973d 8a20 1dbc 6e27 bdbd
00000060: 9929 243c 07af 2b3c 3d7d c0bd 5f1f 0f3f
00000070: dcbc da3e a4b5 573e 4022 9e3e 40b9 0b3d
00000080: de62 8bbc d82d 0dbe dc18 093c 5806 4e3e
00000090: ac67 ccbd 8abb c5bd 9569 80bc d1af 8cbe
000000a0: bd8c d43c 1e5f bf3d 6a0a 853e 1cd0 d3be
000000b0: 52a3 543e 0a42 ddbe bfd0 9bbb 361b 21be
000000c0: e374 cdbd 14a5 543e 2f8f 3f3e d48a ad3d
000000d0: 288d dabe 5e5a 923e d822 8cbe cf84 1fbe
000000e0: 0ee5 81be 5163 6fbe 27b6 fe3d 48d5 80be
000000f0: d12a bd3e c29e 6e3d 3708 45be 079c 863c
00000100: 1a28 a2bd 0e19 a93e 3f70 c23e 15f7 e5bd
00000110: c152 383e ba25 203e b329 6cbe 185a 62bd
00000120: e370 20be 4308 8bbe 1d55 dcbd d751 01bd
00000130: 87c4 8a3d 10fa 053e 5411 56bb cfb1 11bf
00000140: f374 ad38 7fd4 933e 2037 5b3e 663e 44bf
00000150: d5c9 1bbe 2eb0 a23e f5f4 4a3d 3af0 013f
00000160: ca2f 9d3e 900a 1bbe c2d2 b3be be4b 3d3e
00000170: 7f1e bc3e 1b39 e73d e654 5a3d 4e5a d33d
00000180: 0d3c 7e3e 44f3 913e ff2d d63e d20a 3cbf
00000190: 20f5 cdbe ded1 303e a3a4 9bbd aaf5 52be
000001a0: 3829 973e 68d5 dcbe f1df 4c3e 9b72 1cbe
000001b0: a595 853d e35a 94be 275f 863e 506f 123f
000001c0: a395 d23e 4545 03be 05b2 ccbe bbaa 293d
000001d0: 45f0 a0be 4a69 2d3e 1c84 ca3e f751 aabd
000001e0: 2a21 5f3e 66d8 9cbe b505 87be 28e7 423e
000001f0: a813 4a3d c99a 7a3d a4e0 1fbd 6d4b dfbe
00000200: d557 8c3b ee22 0bbe 4f34 3bbe 12bb 68bd
00000210: de19 a23d 45c5 b7be e6f0 a1be 802b b3be
00000220: efca 0d3e 2feb af3e 7e03 5a3e 1c65 60be
00000230: c621 813d 0858 80bd 26c7 3abe 52a2 1f3e
00000240: 2ead 0cbe 8d09 513d 38e5 963e 9d24 aabd
00000250: 1ca3 533e 3ffa 1e3d d9ae c9be a173 42be
00000260: 5e9a 20be bcaa 8bbd 7d74 193e 889f 7abb
00000270: 6271 803e ec10 68be 34f6 b4bd 33ae 15be
00000280: 31c0 d13d 0731 a3be 0926 773a cd5e 353e
00000290: 5dd3 0bbe 1a22 823d c901 cfbd 6ce4 cb3d
000002a0: 8c34 66be 4339 8cbe 1862 1b3e 98bd f0be
000002b0: 41cc 69be 83a2 bebd 2956 e1bd 7e06 c83e
000002c0: d090 063e dcdb 99be 25f3 0d3e 477f 0dbd
000002d0: d7a1 e63d 49f9 f7be 1e09 923e c876 8fbc
000002e0: 8a3e 893d 6fcf 1c3e 69cb 9b3e ea86 10be
000002f0: 7f58 0a3f 2523 ef3d eb5e 72be e59f ba3e
00000300: 3a3d 1f3e e252 aebc 98dd 7e3e 15d8 223e
00000310: e5e0 89bd cc4a cf3c a362 963e 1e44 a73e
00000320: 6857 453e 779a 69be 1921 92be 72fb 313e
00000330: ffed 81bc 4681 50bd eccc 02be fcd3 11bb
00000340: 0ab3 1c3e 2af1 07be da54 abbc c607 b4be
00000350: 115f 40be 5c7b 3fbe 66e3 f9bd be49 d13d
00000360: 78a7 d13b a71e 1abd 6f35 97be 3911 723e
00000370: 42e6 313d 31e3 b43d 1d8b 8bbd 4407 bcbc
00000380: 6881 5c3a b6f6 2a3e 6c08 553e 05c0 cb3e
00000390: b261 3bbd b77f 39bd a1a8 92bd bd76 c23d
000003a0: aafd e7bd 8ee1 b93e d844 b63d eb69 c2be
000003b0: 2139 11be f817 933e 124f aa3e 7972 093d
000003c0: 2ea2 c9b9 2f10 3abe 71e0 a33e a55b dd3d
000003d0: 91d0 6ebe 648a 4bbe b826 79be 8fb7 003e
000003e0: 15f1 c83e 7612 e7bd f5c2 da3d ad42 1ebe
000003f0: 70ba 38be e375 203e dc89 b13d 8abd dc3d
-0.030908858 0.18066773 -0.2142644 0.12283266 0.03304514 0.3587096 -0.17520286 -0.09829378
-0.12801224 0.064417735 -0.2415757 0.04995225 0.31060454 0.27153456 0.27384472 -0.15561667
0.358013 0.45594925 0.020401964 -0.20684858 -0.15582311 0.07395664 -0.009590277 -0.09236036
0.010019683 0.0104787415 -0.09398887 0.55907243 0.42722213 0.21065384 0.30885506 0.034112215
-0.017014917 -0.13787019 0.008367743 0.20119607 -0.09980711 -0.09654911 -0.015675345 -0.27477887
0.025946015 0.09344314 0.25984508 -0.41369712 0.20765427 -0.43214446 -0.004755109 -0.15733036
-0.1003206 0.20766097 0.18706964 0.08473745 -0.4268582 0.2858457 -0.27370334 -0.15578006
-0.25370067 -0.2337773 0.124370866 -0.2516272 0.3694673 0.058256872 -0.19241415 0.016431822
-0.07917805 0.33026928 0.37976262 -0.11228768 0.18000318 0.15639392 -0.23062782 -0.0552617
-0.15668063 -0.2715474 -0.107584216 -0.03157219 0.06775766 0.13083673 -0.0032664137 -0.5691194
8.271066e-05 0.2887306 0.21407747 -0.7665771 -0.15213712 0.3177504 0.049550015 0.5075718
0.30700523 -0.15140748 -0.35121733 0.18485925 0.36742017 0.11290189 0.05330362 0.103199586
0.24827595 0.2850591 0.41831967 -0.7345401 -0.40226078 0.17267558 -0.07599761 -0.20601526
0.29523635 -0.43131566 0.20007302 -0.15278094 0.06522683 -0.2897559 0.2624447 0.572011
0.4112979 -0.12819393 -0.39979568 0.041422587 -0.3143331 0.16934696 0.39553916 -0.08316415
0.21789995 -0.3063385 -0.26371542 0.19033492 0.049335152 0.06118277 -0.039032593 -0.43612233
0.0042829313 -0.13587543 -0.18281673 -0.05681903 0.0791509 -0.35892692 -0.31629103 -0.34994125
0.13846944 0.34359118 0.21290395 -0.2191357 0.0630527 -0.06266791 -0.18240032 0.15589264
-0.13737938 0.0510345 0.29471755 -0.08307765 0.2066769 0.038812872 -0.3939121 -0.18989421
-0.15683886 -0.068196744 0.14985843 -0.003824206 0.25086504 -0.22662705 -0.08836022 -0.14617233
0.10241736 -0.31873342 0.000942797 0.17711945 -0.13654847 0.063541606 -0.10107762 0.099556774
-0.22480983 -0.27387437 0.15174139 -0.4701965 -0.22831823 -0.093083404 -0.11002762 0.39067453
0.13141179 -0.30050552 0.13862284 -0.03454521 0.11261337 -0.48432377 0.2852258 -0.017512694
0.067013815 0.15313505 0.30428627 -0.14113966 0.54041284 0.11676625 -0.23669021 0.36450115
0.155507 -0.021279756 0.24889219 0.15902741 -0.06732348 0.02530422 0.2937213 0.32669157
0.19271624 -0.2281283 -0.28540877 0.17381075 -0.015860556 -0.050904535 -0.12773484 -0.0022251597
0.15302673 -0.1327559 -0.020914484 -0.3516218 -0.18786265 -0.18699402 -0.12201576 0.10219143
0.0063981377 -0.03762689 -0.29532954 0.23639382 0.04343248 0.08832396 -0.06813643 -0.022952683
0.0008411617 0.16695675 0.20803994 0.39794937 -0.045747466 -0.045287814 -0.0716107 0.09495304
-0.113276795 0.36304897 0.0889985 -0.37971434 -0.14181949 0.28729224 0.3326345 0.033556435
-0.0003845854 -0.18170236 0.32007173 0.108084954 -0.2332175 -0.1987701 -0.24331176 0.12570022
0.3924643 -0.11282818 0.10681716 -0.15455122 -0.1803987 0.1566997 0.08668873 0.10778339

bias f4 [10]
00000000: b34d 72be cb18 aa3d 25a5 1e3e 7133 08be
00000010: 7437 833d afef 9a3a 902b fdbd bcec a43d
00000020: 889a 7a3d 9fd0 d0bd
-0.23662452 0.0830551 0.15492685 -0.13300873 0.06407061 0.0011820699 -0.123618245 0.08052966
0.06118253 -0.10196041
